best_model_checkpoint.pth (torch, 16000 bytes, 4 tensors)

input.weight f4 [128, 22]
000000 4b 9f ec 3d 8b 80 52 3e ad db 59 be 8e ec 04 3e
       0.1155382 0.20556848 -0.21275206 0.12980863
000010 e0 9a 45 be a4 55 0d be b8 e7 63 bb 4e 58 58 be
       -0.19297361 -0.138022 -0.0034775566 -0.21127436
000020 4a a9 e3 3d 9a ae bb 3d 55 21 12 be 54 d0 f7 bd
       0.11116274 0.09164162 -0.14270528 -0.12100282
000030 0f 37 29 be c5 77 36 3e 50 b9 1d 3d d7 c7 56 bc
       -0.1652491 0.17819126 0.038506806 -0.013109169
000040 a4 24 e1 bd 39 7f 45 3d 4d 4d 42 3e 24 08 c5 3d
       -0.10993317 0.048217032 0.189748 0.09620693
000050 f4 04 00 be 58 2e b2 bd 47 61 1e 3d ab 5c f9 3d
       -0.1250189 -0.087002456 0.03866699 0.12175878
000060 6f c1 6e 3d 81 8a 9d 3d 3f 74 4f 3d c4 8e be 3d
       0.05828994 0.07692433 0.05064797 0.09304574
000070 8d 1a 74 3d ed 36 d5 bc 4c 6c 86 3d c5 b2 19 3e
       0.059595633 -0.026027167 0.06563625 0.15009601
000080 8b bb 89 3d c0 65 c0 bd d8 b4 05 be 60 7b 31 3e
       0.06725224 -0.09394407 -0.13057268 0.1733222
000090 47 a7 c9 3d b7 c3 45 be be 37 2b be d4 38 5c 3e
       0.09846359 -0.1931294 -0.16720483 0.21506053
0000a0 7a 90 d6 bd c9 2e 50 3e 69 4e 0c 3e 89 68 36 3e
       -0.104767755 0.20330347 0.13701786 0.17813314
0000b0 a6 2e 0f be 3a 8a e9 3c 68 0e b1 3d 4e 1b 3f 3e
       -0.13982639 0.028508294 0.08645326 0.1866276
0000c0 90 46 ee bd d0 e6 37 be cf 9b 86 bd 88 36 ef bd
       -0.116345525 -0.17959142 -0.06572687 -0.11680323
0000d0 75 a7 14 3e f1 bf 13 3e 80 3b 2b 3d 64 a0 b8 3d
       0.14517005 0.14428689 0.04180479 0.09014967
0000e0 79 44 52 3e ca 13 32 3e c1 62 3d 3e d7 f6 d1 bd
       0.20533933 0.17390361 0.18494703 -0.10252159
0000f0 b0 5a e5 3d 38 89 fd 3d e4 68 15 3e 95 7c 01 be
       0.11198938 0.12379688 0.14590794 -0.1264518
000100 c5 30 15 3d 03 82 78 3d 5b 15 a0 bc ea 03 34 3e
       0.036423463 0.060670864 -0.019541433 0.17579618
000110 84 11 85 3c a8 bf 82 3d 3e ac 43 be 41 9f 24 be
       0.016243704 0.06384212 -0.19108674 -0.16076376
000120 9e 46 04 3e 02 79 34 3d 3a 22 28 3e ce b8 74 3b
       0.12917563 0.044060715 0.16419306 0.0037341597
000130 23 7e e8 3d a4 7d 99 3d 6f 96 ed bd 2c ee d1 3d
       0.11352184 0.07494667 -0.116009586 0.10250506
000140 88 a8 01 be b9 ff 3c bd 83 63 04 3e e5 6c ea 3d
       -0.12661946 -0.046142314 0.12928586 0.11446551
000150 f4 62 44 bd f8 dc 51 3e 80 eb 08 3e 73 fe 03 3e
       -0.04794593 0.20494449 0.13371086 0.12890033
000160 0d a9 29 3e 84 de 5e be f8 13 43 be b0 f1 9d bc
       0.16568394 -0.2176457 -0.19050586 -0.019280285
000170 3f c9 36 be 20 4c 35 bd 54 63 a6 bd 0e d1 f1 bd
       -0.17850207 -0.04426205 -0.08124414 -0.11807452
000180 3c 5a c4 3d 20 8d b7 bc 5b bd 49 3e 40 3f 4b 3d
       0.09587523 -0.02240616 0.1970114 0.049620867
000190 2e 9e bc bd e0 7c 52 3c 78 9b 92 3c c4 2d 98 bd
       -0.09209858 0.012847155 0.017896399 -0.07430604
0001a0 60 70 c2 3b 58 7e 96 3d d9 8a e2 bd f1 a5 4a be
       0.0059338063 0.07348317 -0.11061639 -0.19789864
0001b0 9b 8b 2c be b5 d8 dc bc 29 df 00 be 45 01 3c 3e
       -0.1685013 -0.026958803 -0.12585129 0.1835986
0001c0 aa fb cf 3d 1c f6 7a 3d ad 92 af 3c 1f 4a 09 be
       0.10155423 0.061269864 0.021432245 -0.13407181
0001d0 29 30 30 bc 3e d7 51 bd fd 3a 12 be d2 08 4b 3e
       -0.01075367 -0.05123066 -0.14280315 0.19827583
0001e0 7d 86 15 be 3c 08 c1 3c 46 01 7c bd b6 e9 33 39
       -0.14602084 0.023563497 -0.061524652 0.00017157834
0001f0 d1 7e 30 3e 65 2d 47 3e 80 1e 43 bb ee c8 2a 3e
       0.17235877 0.1945091 -0.0029772818 0.16678211
000200 dc 14 e4 bd 76 11 3a be 64 02 2b bc d1 b1 2c 3e
       -0.11136791 -0.18170723 -0.010437582 0.16864707
000210 12 7b a9 3d b5 db 04 be 8d 39 40 be f7 75 40 be
       0.08275427 -0.12974437 -0.18771954 -0.18795
000220 0e 2e 45 be c2 d7 25 3e d6 c2 5c be 35 db 21 3e
       -0.1925585 0.16195586 -0.21558699 0.15806277
000230 cd e3 bd 3d 93 8f 23 be c0 e7 29 3d dc 29 b6 bd
       0.09271965 -0.15972738 0.04148078 -0.08894703
000240 6d e2 36 3e 5e 7b c3 bd 7e 0d 1c be fe 39 a8 bd
       0.17859812 -0.09545015 -0.15239522 -0.08214186
000250 52 d0 7e 3d 23 31 b8 bd f0 0a a8 ba 01 7d 0b be
       0.06221039 -0.08993747 -0.0012820642 -0.13621904
000260 6e fd 46 be 6f 9a c2 3c 5a be 5d 3d 2c c6 c5 bd
       -0.19432613 0.02375528 0.05413661 -0.09656939
000270 d5 ef 28 be 47 2a fe bd 2a f7 78 3d 34 6e 24 3c
       -0.16497739 -0.124104075 0.06078259 0.01003604
000280 44 ff 24 be a3 0a 44 bd 1c 98 4a 3e 5c 93 27 be
       -0.16113001 -0.047861706 0.19784588 -0.16364807
000290 bb 19 bb 3d 7f e1 ec bd 36 f5 50 be 28 5f 11 be
       0.09135767 -0.115664475 -0.2040604 -0.14196455
0002a0 2d 6f 4c 3e 23 8f 9f 3b f5 33 da 3d 84 29 22 be
       0.19964285 0.004869358 0.10654441 -0.1583615
0002b0 12 1d fe bc 3f ad 23 be ac 0a 07 bd 32 f8 43 3d
       -0.031019721 -0.15984057 -0.032969162 0.04784412
0002c0 e8 ee 0b be 60 d4 fc 3d 43 2c 4d be 37 19 01 be
       -0.13665354 0.12345195 -0.20036416 -0.12607275
0002d0 2d 26 b5 3d b4 f5 2d 3e 6c 72 e0 bc 90 3a 26 3d
       0.08845172 0.1698826 -0.02739831 0.040583193
0002e0 f6 0b 27 3e e0 21 03 3e 65 94 13 3e 23 9f ef b9
       0.16313156 0.12805891 0.14412077 -0.00045704198
0002f0 25 33 da 3d 27 e9 e9 bd 03 ee 58 be 5a 87 fe bd
       0.10654286 -0.114214234 -0.21184544 -0.1242816
000300 4d 58 16 be b7 b9 9f bc 21 60 15 bd e5 4b 19 be
       -0.14682122 -0.019497735 -0.03646863 -0.14970358
000310 79 fa 5c bd f5 35 c5 3d 70 b7 27 be ef 52 4d be
       -0.053949807 0.09629432 -0.1637857 -0.20051168
000320 e9 12 55 3e cb b4 7e bd ea 38 50 3e cb c7 a9 bc
       0.20807995 -0.062184136 0.20334211 -0.020725152
000330 b3 3c 57 3c 5c ab 8c bd 2f 3b 03 be 66 99 0e be
       0.01313703 -0.06868622 -0.12815545 -0.13925704
000340 53 ad 17 3d 43 8c 27 be 52 91 28 bd 31 07 dc 3d
       0.03703053 -0.163621 -0.041154213 0.10743559
000350 d2 71 08 3e b4 0c 17 be 99 87 e4 bc 1b 66 03 be
       0.13324669 -0.1475094 -0.02789669 -0.12831919
000360 8f ad 60 3d 98 41 2d 3d e9 a3 5b 3d 31 eb 1e be
       0.05485302 0.042298883 0.053623114 -0.15519406
000370 f1 68 32 3e dc 0c 4c bd 4e 4a 33 be 7f e7 18 3e
       0.17422844 -0.04981695 -0.17508814 0.14932059
000380 9f dd fc 3d 78 13 52 bd cf 29 18 bd d5 5b ff bd
       0.12346958 -0.051288098 -0.037149247 -0.124686874
000390 63 9f 1f be 9c c8 ba 3d e3 e6 58 3e 32 d6 59 3e
       -0.15588145 0.091202945 0.21181826 0.21273115
0003a0 60 eb f2 3d 49 d1 96 bd ae b6 25 3e 28 47 68 bc
       0.118613005 -0.07364137 0.16182968 -0.014177121
0003b0 38 83 4f 3d 2f 00 f6 3d 68 1e 10 be 2c 98 a9 bd
       0.05066225 0.12011754 -0.14074099 -0.082809776
0003c0 94 15 9d 3d a6 1f 52 3e a8 3b 7a bc c0 f0 99 3d
       0.07670131 0.20519885 -0.015273012 0.075166225
0003d0 94 c7 35 3d fb f7 54 3d 04 76 b9 bc cf 81 43 be
       0.044379786 0.051994305 -0.022639282 -0.19092487
0003e0 ef c2 a3 3b a6 c8 51 be ba dc 3c be 48 a7 3a be
       0.004997603 -0.20486698 -0.18443576 -0.18227875
0003f0 dd f1 6c bd 8b 9f 45 be cb 05 0c 3e d4 c3 b2 3d
       -0.057847846 -0.19299142 0.13674085 0.087287575

input.bias f4 [128]
000000 7f 1f 94 bd 23 25 33 3e 30 b7 f9 3d f1 5c 4e 3c
       -0.0723257 0.17494635 0.12193143 0.012595401
000010 58 d6 ea 3d c3 9f 11 3e 20 d0 4e 3e a7 2e 4e bb
       0.11466664 0.142211 0.20196581 -0.0031460912
000020 a5 d3 4a 3e 61 20 52 3e 92 de e4 bc 05 7e cc bc
       0.19807298 0.20520164 -0.027938161 -0.024962435
000030 61 c5 f7 3d 91 46 34 be 1b 8b 2b 3e df c9 2e be
       0.12098194 -0.17605044 0.16752283 -0.17069195
000040 9e 98 52 3d 17 3e 71 3b dd d0 d9 3d 89 1e 01 3e
       0.05141508 0.003681069 0.10635541 0.12609304
000050 06 e8 b8 bd 7c 8c f1 3d fa fc 12 3d f9 bd 08 bd
       -0.0902863 0.117943734 0.03588579 -0.033384297
000060 ed fe e0 3d 13 8a 08 3e 1d 16 8e bd 02 14 aa bd
       0.10986123 0.13333921 -0.069378115 -0.083045974
000070 83 42 18 bd c2 9f a9 3d aa e3 57 be cf 9d b9 3d
       -0.037172806 0.082824245 -0.2108294 0.09063303
000080 de c8 9d bd a0 9e 4b 3c 2d 27 1f bd 54 33 9a 3c
       -0.07704328 0.012427956 -0.03885572 0.018823303
000090 64 08 f2 3c 14 33 5b 3e d3 46 06 3e 72 ce 20 3e
       0.029545017 0.21406204 0.13112955 0.15703753
0000a0 ce d3 8e 3d 48 4c f3 bd a1 be 04 3e ec fb 17 be
       0.06973992 -0.11879784 0.12963344 -0.14842194
0000b0 b6 24 3e 3e e7 e9 83 bd 23 ab 1e 3e e8 99 85 3d
       0.18568692 -0.06441098 0.15494971 0.06523496
0000c0 bb 77 43 3e 28 18 39 3e a6 ab 3f 3e ac f9 c2 bc
       0.19088642 0.18075621 0.18717822 -0.023800693
0000d0 38 9f eb bd 75 e1 7c 3b 4f 62 06 be 67 5e 0d bd
       -0.11504978 0.0038586531 -0.13123439 -0.034513857
0000e0 4a 2a e2 bd 8c 4b 54 be d3 6b ba bd 9d 3e a9 3d
       -0.11043222 -0.20731944 -0.09102597 0.08263896
0000f0 fe 0c a7 3d e6 1a eb 3d 2f c8 d9 3d 78 77 42 bd
       0.08156775 0.1147974 0.10633885 -0.047477216
000100 f2 71 a7 3d b7 db d9 bd c9 9e 8d bd c5 53 4b be
       0.0817603 -0.106376104 -0.069150515 -0.19856174
000110 ea ac 4f 3e bf c3 ef 3d c6 67 db 3d c8 b2 f5 3a
       0.20280805 0.117072575 0.107131526 0.0018745298
000120 72 fc ef bd 2c 50 0f 3d fc a4 2d be 4d 31 f5 bd
       -0.11718072 0.034988567 -0.16957468 -0.11972294
000130 29 18 00 be dd 5c b6 bd ba 83 43 be ce 31 18 3e
       -0.12509216 -0.08904431 -0.19093218 0.14862749
000140 3d ce 9f 3d 31 f8 c2 bd c9 93 b1 bd 30 51 1e bd
       0.07803009 -0.09519995 -0.08670766 -0.038651645
000150 15 cc 0b bd 07 03 3b be 59 bc 39 3e d3 6e 22 bd
       -0.034130175 -0.18262874 0.18138255 -0.03965647
000160 fc 60 1e 3e 2f cf c1 bd b9 d8 07 3e 78 b3 31 be
       0.15466684 -0.09463345 0.13266267 -0.17353618
000170 da a3 f7 3d f2 d2 0c 3e 2a f0 85 bd 19 1e 46 3e
       0.12091799 0.13752344 -0.06539948 0.19347419
000180 16 46 1d 3e f6 ed ad 3c 1b d8 4f 3e 0f f1 d1 3d
       0.15358767 0.021231633 0.20297281 0.102510564
000190 df bb c7 3d ce 34 1b be 6d ec 11 be 6b 20 d7 3d
       0.097526304 -0.15156862 -0.14250346 0.1050423
0001a0 84 fb 00 3e 70 19 a6 3b 73 73 2f 3e 57 49 a8 bc
       0.12595946 0.0050689504 0.17133884 -0.020542784
0001b0 b3 19 ca bd 2f 38 14 bd 8e 49 bf 3a e5 08 0a 3d
       -0.09868183 -0.036186393 0.0014594065 0.03369989
0001c0 c7 fa dc bc b6 02 07 bd 16 75 50 be 18 d7 30 be
       -0.026975049 -0.03296157 -0.20357165 -0.17269552
0001d0 88 e3 29 be 50 5b be bd 6a 0a 34 bd 1f e1 b5 bc
       -0.16590703 -0.0929476 -0.043955244 -0.022202073
0001e0 21 ee e1 3d 4b 5c 26 be 17 13 4d 3e dd d3 ce 3c
       0.110317476 -0.16246144 0.20026813 0.025247509
0001f0 56 e7 a6 3d 05 8a 1b 3e a7 1a 3c bd 71 02 30 3e
       0.081495926 0.15189369 -0.045923855 0.17188431

output.weight f4 [4, 128]
000000 0c e3 81 bc bf f8 9b bd 54 b9 4f bd 84 ba 8c bb
       -0.015855335 -0.07615804 -0.050713852 -0.0042946953
000010 09 31 90 bc 92 45 c6 bc be 85 9d 3d 82 df 84 bb
       -0.017601507 -0.024203096 0.07691525 -0.0040549645
000020 35 f6 de 3c 60 f5 b4 3d 8b 18 92 3c 27 49 a1 3d
       0.02721701 0.08835864 0.017833969 0.07875281
000030 e6 56 ab bc 09 24 ae bc 5e fb 49 3d 0e c4 02 ba
       -0.02091546 -0.021257417 0.049311988 -0.0004988321
000040 93 3a 8b bd 17 f2 31 bb f3 3e 19 bd a1 15 50 bc
       -0.067982815 -0.0027152353 -0.03741355 -0.012700469
000050 d2 c7 7a 3d be 29 0d bd 7f e1 80 3d 8c a7 3b 3c
       0.06122572 -0.034463637 0.0629301 0.0114535205
000060 58 7b 54 3d 62 33 16 bb 90 95 19 bd 74 d5 78 3a
       0.051875442 -0.002291881 -0.03749615 0.0009492256
000070 ab b9 ec 3c 81 83 84 bd cb 13 e3 bb 1d 03 f1 3c
       0.028897127 -0.06470395 -0.0069298497 0.02942043
000080 a8 99 da bc 23 e2 4d 3d 45 35 9e 3c 13 98 ad bd
       -0.026684597 0.05026449 0.01931251 -0.084762715
000090 9b b9 8d 3d 5e ee 87 3d 93 c7 90 bd 95 e8 0a 3d
       0.06920167 0.06637262 -0.07069316 0.033913214
0000a0 c0 97 a0 3d 65 2c a5 bd 4a de 53 bd 32 6b 95 3d
       0.07841444 -0.08065108 -0.051725663 0.072958365
0000b0 7b 0f f7 bc 91 29 99 bd 74 d2 8b bc de cf a4 3d
       -0.030158749 -0.07478631 -0.017068125 0.0804746
0000c0 89 71 14 3c ba 1d 16 3d cc 43 15 3b 00 53 23 bd
       0.009060272 0.036649443 0.0022776006 -0.039874077
0000d0 b7 2b ac bd a5 14 06 3d 60 0c a8 3c 25 29 95 bc
       -0.084067754 0.032734532 0.020513713 -0.018208096
0000e0 ff 14 71 3d fc 0b 5e bd 96 72 3d bd 6d 99 c8 3b
       0.058857914 -0.054210648 -0.046251856 0.0061218054
0000f0 5c 89 19 3d 71 a0 86 3d 4c 85 f6 3b 99 64 f8 3b
       0.03748451 0.065735705 0.0075232144 0.0075803516
000100 a3 c3 dd bc 61 ad 81 3c 0f e6 b0 bd 4e f8 27 3c
       -0.027070826 0.015829744 -0.0863763 0.010252072
000110 31 38 38 bb 53 96 ca bc 42 1c ab 3c 27 ab ab 3d
       -0.0028109665 -0.024729883 0.020887498 0.08382254
000120 b1 a8 a3 3d af d8 72 3d 28 5c 11 bd 7e 9e 81 3b
       0.0799116 0.059288677 -0.035488278 0.0039556613
000130 14 00 49 bc 44 9f a8 bc 72 5f 24 3d 30 70 b2 bd
       -0.012268085 -0.020583756 0.040130086 -0.08712804
000140 87 57 a9 bd 4a 49 0f bd 34 a1 25 3d f0 5d 65 bd
       -0.08268648 -0.034982003 0.04043694 -0.05599779
000150 79 59 03 3d f1 1e 3d bd 08 12 2b 3d 5f e6 a1 bd
       0.03206775 -0.046172086 0.041765243 -0.07905268
000160 a9 1a a8 3d 90 77 65 3d db 1f 93 3a fa 94 bc bd
       0.0820821 0.056022227 0.0011224704 -0.092081025
000170 f6 01 3e bd ca 6a 7e 3a 7c 39 5b 3d 53 b9 4c 3d
       -0.04638859 0.0009705244 0.05352162 0.049981426
000180 ee 4c 2c 3c 03 18 ef 3c d6 07 b0 bc 22 f2 38 bd
       0.010516388 0.029186254 -0.021488111 -0.04515279
000190 2c 8e 90 bd 0a 2d 0b 3c 71 db 6e 3c 19 2f 13 3d
       -0.07058367 0.008494625 0.014578686 0.035933588
0001a0 93 0a cc bc 9d cf 9a 3d 03 a4 6d 3d fb 76 5c bd
       -0.024907386 0.0755913 0.058017742 -0.053824406
0001b0 70 59 bc b7 6f 83 83 3d f2 42 10 3c 67 e4 ee 3c
       -2.2452994e-05 0.06421553 0.0088050235 0.029161645
0001c0 f8 da 0b bd c5 87 6c 3d 53 71 29 3d 22 2f 90 3d
       -0.03414437 0.057746667 0.04136784 0.0704024
0001d0 bb ac 1b bc bf ee c4 3a 92 a6 63 bd 1b 84 8c bd
       -0.009501631 0.0015024765 -0.055578776 -0.068611346
0001e0 51 32 ab bd 90 01 db 3b a9 94 a2 3d 05 7d 9a bd
       -0.083592065 0.006683536 0.07938511 -0.07543377
0001f0 d0 51 66 3d 39 24 21 3d 22 8a bc 39 90 8c 67 ba
       0.056230366 0.039341185 0.0003596107 -0.0008832896
000200 e2 58 0e bd f5 09 37 bd 43 c9 a3 bd 52 26 89 3c
       -0.034752734 -0.04468723 -0.07997372 0.016741905
000210 26 78 2b bd 57 55 b9 3c 93 89 01 bd bf 3f a0 3d
       -0.04186263 0.022623701 -0.03162534 0.078246586
000220 d4 1f aa bd 23 cb 2e bd 24 78 b9 bd 38 02 8a 3d
       -0.08306852 -0.042674195 -0.09056118 0.067387044
000230 c8 7f 91 bd 25 7e 7c bd 56 1d a1 bd 6a 8d 48 bd
       -0.071044505 -0.06164374 -0.078669235 -0.048962988
000240 79 5d b6 3b d3 04 a0 bd f0 b3 b2 bd d1 4d 92 3c
       0.005565342 -0.0781342 -0.087257266 0.017859371
000250 7d fc c0 bc 56 05 b1 bd 6e 42 21 3c 7e 39 a6 3d
       -0.023557896 -0.08643596 0.009842498 0.081164345
000260 e7 1f a3 3b 78 44 8c 3d 55 80 86 bd 1b c2 b5 3c
       0.0049781683 0.06848997 -0.06567446 0.022187283
000270 36 85 4f bc 34 69 ad 3d 24 f8 8e 3d 9d cd 8c 3d
       -0.012666037 0.084673315 0.06980923 0.06875155
000280 6c d2 81 3d c5 5c 43 3d 6b 56 00 bd 89 81 56 3d
       0.06338963 0.047695894 -0.031332415 0.052369628
000290 c2 2b c0 3c bf 8f 60 bd 0d 6b 98 3d cc cb 38 3c
       0.023458365 -0.054824587 0.07442293 0.011279058
0002a0 58 14 c6 3c 28 04 c1 bd a3 6d 1a 3b 22 49 80 bd
       0.024179623 -0.09424621 0.0023563884 -0.06263949
0002b0 67 19 90 bc 5f f4 c7 bb d7 ae 9d 3d 4f 97 f1 bc
       -0.017590238 -0.0061021294 0.07699364 -0.029491095
0002c0 89 e4 d9 3c 8b b7 ec 3c 04 7c bb bc 7b 7c 99 3d
       0.026598232 0.028896114 -0.022886284 0.07494446
0002d0 7b d6 a3 bd 17 a4 61 bd f3 4e e0 bb 1f 10 97 3d
       -0.07999893 -0.05508813 -0.006845349 0.07376122
0002e0 1a f8 3c bd bb 64 7e 3d 38 13 ba 3d 64 0e 33 bd
       -0.046135046 0.062107783 0.09085697 -0.043714896
0002f0 f5 ec d6 3b 34 d2 62 bc 4b 10 3f 3c 5c 11 85 3c
       0.006559009 -0.013844062 0.011661599 0.01624363
000300 3f 6f 10 3c ce 4b 0d bd e1 7e a7 bd bc 12 4d bd
       0.008815586 -0.03449612 -0.08178497 -0.050066695
000310 ea 52 af bc 19 8e 35 3d 43 18 96 bd 5b e5 8e bd
       -0.021401841 0.044324968 -0.07328846 -0.0697734
000320 fa 59 df ba 6c f7 62 bd 39 d4 c1 3d 3e 3d a4 bd
       -0.0017040365 -0.05541174 0.094643064 -0.080194935
000330 e7 37 23 3d cf 8f 38 3d a6 e5 03 bd 00 4a f9 3c
       0.039848235 0.04505902 -0.03220143 0.030430794
000340 98 ba 93 3d e0 1c 98 3c 62 c3 6a bc 79 25 3b 3d
       0.07213324 0.018568456 -0.014328809 0.045690034
000350 ef 3c 92 3d f2 42 5b bd db d1 95 3d 3a 19 9c 3d
       0.071405284 -0.05353064 0.073154174 0.07621999
000360 34 9d b1 bc e6 1b 0f bd 62 f3 82 3c 65 7a 6f bd
       -0.021681406 -0.034938715 0.015985195 -0.058466334
000370 a8 24 93 3d 31 c2 02 bc 52 e2 60 bd 31 e1 35 bd
       0.07184726 -0.007980869 -0.054903336 -0.044404212
000380 6e 30 34 bd 04 11 a5 3d 76 c3 7e 3d 49 1e f3 bc
       -0.0439915 0.08059886 0.062198125 -0.029677527
000390 20 23 7f bd 7f 9e b1 3c 82 63 80 bd e6 55 8b ba
       -0.062289357 0.021682022 -0.062689796 -0.0010630458
0003a0 60 00 1c 3d f7 74 23 bd d4 8a 01 bd 62 5e 19 3d
       0.038086295 -0.03990647 -0.031626537 0.037443526
0003b0 ce eb 01 bd fd a7 9b bd b2 cd 31 3d e5 7e 29 3d
       -0.03171902 -0.076004006 0.043409057 0.04138078
0003c0 67 0a 0f bd 40 9c 94 bd e6 4b 0c 3d 85 60 9d bd
       -0.03492203 -0.07256365 0.03425207 -0.07684425
0003d0 60 ee 08 3c 0c 94 64 bd f3 9f 56 3d 61 d1 02 3d
       0.008357614 -0.05580525 0.052398633 0.03193796
0003e0 c8 4a 50 bc 50 56 59 3d eb 29 66 3b 4f e3 a2 bd
       -0.012713142 0.05306083 0.00351202 -0.07953512
0003f0 ae 39 84 bd af 6a e2 3c e3 6e c3 3d 0e a5 0d 3c
       -0.06456314 0.027638761 0.09542634 0.008645309

output.bias f4 [4]
000000 64 89 a5 bd 7f e2 8e bd 97 fa a0 3d bf f2 86 3c
       -0.08082846 -0.069767945 0.07860296 0.016473172
