best_model_checkpoint.pth (torch, 20608 bytes, 4 tensors)

input.weight f4 [128, 30]
0	0x3ddb12e7	0.10696965
1	0x3e3a2514	0.18178207
2	0xbe342cd4	-0.17595226
3	0x3df0611e	0.11737274
4	0xbe281ae8	-0.16416514
5	0xbdf399bb	-0.11894556
6	0xbbaef975	-0.005339796
7	0xbe2f68c9	-0.17129816
8	0x3dd5ec17	0.10445421
9	0x3dafb8b6	0.08580153
10	0xbdf6defb	-0.12054249
11	0xbdd5c226	-0.104374215
12	0xbe0ffb31	-0.14060666
13	0x3e24b2b6	0.16083798
14	0x3d0c986f	0.03432506
15	0xbc2621dc	-0.010139909
16	0xbdd10c0b	-0.10207375
17	0x3d35dc4b	0.04439954
18	0x3e2cfe14	0.16893798
19	0x3daa5766	0.08317451
20	0xbdc2eda1	-0.0951798
21	0xbd8ad939	-0.06779713
22	0x3cc559f7	0.02409075
23	0x3dc825d8	0.09772843
24	0x3d3ca1fb	0.046052914
25	0x3d921284	0.07132438
26	0x3d5da212	0.05410964
27	0x3db19cce	0.08672486
28	0x3d57da7d	0.0526986
29	0xbc956823	-0.018238133
30	0x3d6e58ca	0.058190145
31	0x3dff801a	0.12475605
32	0x3d71e70e	0.05905824
33	0xbdba7539	-0.0910439
34	0xbdfec739	-0.124403425
35	0x3e13bf6f	0.14428495
36	0x3db5f7aa	0.08885129
37	0xbe21df1c	-0.15807766
38	0xbe1661f5	-0.14685805
39	0x3e38b033	0.18035965
40	0xbda14c73	-0.0787591
41	0x3e2a9e64	0.16661984
42	0x3ddda884	0.108231574
43	0x3e10e0f4	0.14148313
44	0xbe014eaf	-0.12627672
45	0x3c88c14d	0.016693735
46	0x3d8b7fdd	0.06811497
47	0x3e2562fe	0.16151044
48	0xbdd4c33e	-0.10388802
49	0xbe2888e1	-0.16458465
50	0xbd662840	-0.05619073
51	0xbdc465b6	-0.09589712
52	0x3e05cf9b	0.13067476
53	0x3df10585	0.11768631
54	0x3d0725ba	0.032994963
55	0x3d98b7f0	0.07456958
56	0x3e267b19	0.16257896
57	0x3e1b5ddc	0.15172523
58	0x3e1a2339	0.15052499
59	0xbdbec0fe	-0.09314154
60	0x3da7c724	0.0819228
61	0x3dccf8a8	0.10008365
62	0x3e07f95e	0.1327872
63	0xbdde4948	-0.10853821
64	0x3ced749e	0.028986271
65	0x3d4cab7b	0.049968224
66	0xbc8b6b4b	-0.017018935
67	0x3e1cb51f	0.15303467
68	0x3c29c590	0.010362044
69	0x3d665508	0.056233436
70	0xbe28358b	-0.16426675
71	0xbe0d3931	-0.13791348
72	0x3dda3660	0.106549025
73	0x3d3e7204	0.046495453
74	0x3e1c2b32	0.15250853
75	0x3c31ff67	0.010864115
76	0x3dc2ec8b	0.09517773
77	0x3d8af047	0.067841105
78	0xbde10a16	-0.10988252
79	0x3db723eb	0.08942398
80	0xbdf22013	-0.11822524
81	0xbd2f140f	-0.04274374
82	0x3dbf0c77	0.09328549
83	0x3dc2e93c	0.09517142
84	0xbd26ac41	-0.040691618
85	0x3e28439c	0.16432041
86	0x3dedb5fa	0.11606975
87	0x3dd3ac82	0.10335638
88	0x3e115d02	0.14195636
89	0xbe3e18d2	-0.18564156
90	0xbe2ac441	-0.16676427
91	0xbca36c73	-0.019949174
92	0xbe1e760d	-0.1547472
93	0xbd1ffeb3	-0.03906126
94	0xbd906401	-0.07050324
95	0xbdd21f9b	-0.102599345
96	0x3da51f2b	0.080625854
97	0xbcafe641	-0.021472098
98	0x3e2f67d5	0.17129453
99	0x3d3e98b3	0.046532344
100	0xbd9f5dc0	-0.07781553
101	0x3c1873db	0.009304966
102	0x3c772c3b	0.015086229
103	0xbd848eec	-0.06472573
104	0x3bb8b9be	0.0056373766
105	0x3d82b7d9	0.063827224
106	0xbdbd3374	-0.092383295
107	0xbe2f32ef	-0.17109273
108	0xbe12a2f6	-0.14319977
109	0xbcb04dae	-0.021521416
110	0xbdde9cce	-0.10869752
111	0x3e200105	0.15625389
112	0x3dac616a	0.08417018
113	0x3d5b0e71	0.05348057
114	0x3c61b0f5	0.0137751
115	0xbdf670f1	-0.120332606
116	0xbca42b7b	-0.020040264
117	0xbd22f37a	-0.03978298
118	0xbdf8aad8	-0.12141961
119	0x3e2fc662	0.17165521
120	0xbdfacddb	-0.12246295
121	0x3cdd65fc	0.027026169
122	0xbd6a4445	-0.057194013
123	0x3bb4719a	0.0055067064
124	0x3e1a8f09	0.15093626
125	0x3e288c53	0.1645978
126	0xbbba941a	-0.0056939246
127	0x3e13a04d	0.14416619
128	0xbdcebe1e	-0.10094856
129	0xbe22f737	-0.15914617
130	0xbc65e465	-0.014031504
131	0x3e0d229a	0.1378273
132	0x3da08b8d	0.07839117
133	0xbddda990	-0.10823357
134	0xbe1e7af3	-0.15476589
135	0xbe284ceb	-0.16435592
136	0xbe2718e3	-0.16318087
137	0x3e0cd504	0.13753134
138	0xbe38d8bb	-0.18051426
139	0x3e118183	0.14209561
140	0x3db6a98a	0.08919056
141	0xbe05427b	-0.13013642
142	0x3d1fec92	0.03904397
143	0xbd9764f8	-0.07392305
144	0x3e254f7c	0.16143602
145	0xbda13d1d	-0.078729846
146	0xbe014d09	-0.12627043
147	0xbd9a89de	-0.07545827
148	0x3d4e7f55	0.050414402
149	0xbda8ebc2	-0.08248092
150	0x3c288085	0.010284548
151	0xbdd76e6a	-0.10519107
152	0xbe21eac7	-0.15812217
153	0x3cd72e99	0.026267337
154	0x3d23b3e2	0.03996647
155	0xbdbb960f	-0.09159481
156	0xbe1127c4	-0.14175326
157	0xbdf11cbb	-0.11773058
158	0x3d297540	0.041371584
159	0x3aa1df12	0.0012349805
160	0xbe109e22	-0.14122823
161	0xbd3a8af9	-0.04554269
162	0x3e291463	0.16511683
163	0xbe13b077	-0.14422785
164	0x3d96bd1b	0.07360288
165	0xbdcd4106	-0.10022168
166	0xbe276ca9	-0.16350044
167	0xbdfbbbe6	-0.12291698
168	0x3e25907d	0.16168399
169	0xba8c5a23	-0.0010708015
170	0x3dbb48ee	0.091447696
171	0xbe008bd4	-0.1255334
172	0xbcf55231	-0.029946418
173	0xbe101215	-0.14069398
174	0xbd1eb7a4	-0.038749352
175	0x3cf10580	0.029421568
176	0xbe034413	-0.12818937
177	0x3dc933e9	0.09824354
178	0xbe3c4e7a	-0.18389311
179	0xbdd6819c	-0.1047394
180	0x3da1b73e	0.07896279
181	0x3e13bb3f	0.14426897
182	0xbcbc219a	-0.022965241
183	0x3ceea7fe	0.02913284
184	0x3e0e2f29	0.13885178
185	0x3dc18a38	0.09450191
186	0x3df5277f	0.11970424
187	0x3bcfa898	0.0063372366
188	0x3d9def2c	0.07711634
189	0xbdce93d9	-0.100867935
190	0xbe388fc0	-0.18023586
191	0xbdd4770a	-0.103742674
192	0xbdfa9dae	-0.12237106
193	0xbcb22778	-0.021747336
194	0xbc8ee5a6	-0.01744349
195	0xbe0d07b6	-0.13772473
196	0xbd3909dd	-0.045175422
197	0x3d94810d	0.07251177
198	0xbe13fe38	-0.14452446
199	0xbe31c73b	-0.17361157
200	0x3e36eb83	0.17863278
201	0xbd68bd63	-0.05682124
202	0x3e31f4fe	0.17378613
203	0xbc875c24	-0.016523428
204	0x3c72258e	0.014779462
205	0xbd641199	-0.055680845
206	0xbde4901f	-0.111603014
207	0xbdf45ec2	-0.11932136
208	0x3cd8100e	0.026374843
209	0xbe12c046	-0.14331159
210	0xbce1aad8	-0.027547285
211	0x3dc16ade	0.094442114
212	0x3df424fd	0.119211175
213	0xbdff734a	-0.124731615
214	0xbc9790be	-0.018501636
215	0xbdd8f92c	-0.10594401
216	0x3d5a0320	0.053225636
217	0x3d3c6c8f	0.046001967
218	0x3d61d41e	0.05513393
219	0xbdfb8a5d	-0.1228225
220	0x3e119240	0.14215946
221	0xbd58c95e	-0.052926414
222	0xbe1db188	-0.15399754
223	0x3e0e8c5b	0.13920729
224	0x3de83df7	0.11339944
225	0xbd1d7f03	-0.038451206
226	0xbd12ed66	-0.035870932
227	0xbddcb10c	-0.107759565
228	0xbe092973	-0.13394718
229	0x3da82479	0.082100816
230	0x3e34fe51	0.17675139
231	0x3e37aa9f	0.1793618
232	0x3dc77fb1	0.09741152
233	0xbd684130	-0.056702793
234	0x3e11f3a1	0.14253093
235	0xba4fd00e	-0.0007927426
236	0x3d4ee346	0.050509714
237	0x3dc8ab19	0.09798259
238	0xbde6c144	-0.11267331
239	0xbd94c9b5	-0.07265035
240	0x3d7a7e0d	0.061155368
241	0x3e2a936c	0.166578
242	0xbbfe67e0	-0.0077638477
243	0x3d97f6b4	0.07420102
244	0x3d3caafe	0.04606151
245	0x3d3a1861	0.045433406
246	0xbcd2777c	-0.02569174
247	0xbe1c3915	-0.1525615
248	0x3c719b05	0.014746432
249	0xbe35d55e	-0.17757174
250	0xbe17c7eb	-0.14822356
251	0xbe1c78ad	-0.15280409
252	0xbd71307f	-0.05888414
253	0xbe21f86f	-0.15817426
254	0x3e011544	0.12605768
255	0x3d99970e	0.074995145

input.bias f4 [128]
0	0x3d883a66	0.066517636
1	0xbe16361c	-0.14669079
2	0xbe26019f	-0.16211556
3	0x3e0c4f02	0.13702014
4	0x3dba5850	0.090988755
5	0xbd264af0	-0.04059881
6	0xbc3902cd	-0.011292172
7	0xbe1626e4	-0.14663273
8	0xbd08f282	-0.0334344
9	0x3c06deb7	0.00823181
10	0xbe011357	-0.12605034
11	0xbcdacd15	-0.026709119
12	0x3cf14085	0.02944971
13	0x3de034cf	0.109475724
14	0x3d9b724b	0.07590159
15	0x3ce43d83	0.027861362
16	0xbd1eb6da	-0.0387486
17	0x3e152b40	0.1456728
18	0x3d3cc2a7	0.046084072
19	0xbca8fc18	-0.02062802
20	0xbe2eac00	-0.170578
21	0x3e1f1d91	0.15538622
22	0x3da546f1	0.080701716
23	0x3daf8425	0.085701264
24	0xbd860203	-0.065433525
25	0x3e25d5ff	0.16194914
26	0xbe15dc88	-0.14634907
27	0xbdc9c97c	-0.09852883
28	0xbc62dd32	-0.013846682
29	0xbdd705c6	-0.10499148
30	0x3e1c37b5	0.15255626
31	0xbda20c1d	-0.07912467
32	0xbd0d6a64	-0.03452529
33	0x3e2d7830	0.16940379
34	0x3cb525f2	0.02211282
35	0x3e384132	0.1799362
36	0xbdd694f5	-0.1047763
37	0xbe3223c5	-0.17396457
38	0xbdb2b939	-0.08726735
39	0xbdefe4cb	-0.11713561
40	0xbd2d2a65	-0.04227676
41	0x3e15bb04	0.14622122
42	0xbdbad680	-0.09122944
43	0x3df96854	0.12178102
44	0x3e105a4d	0.14096947
45	0x3c9fffa7	0.019531084
46	0x3b8ceab3	0.0043004393
47	0xbe3446b5	-0.17605098
48	0x3d09cf5e	0.033645026
49	0x3da14022	0.078735605
50	0x3d152742	0.036414392
51	0xbc9f9c68	-0.01948376
52	0xbd2592fc	-0.04042338
53	0x3c63895e	0.013887731
54	0x3ce1ccf5	0.027563551
55	0x3dab1b6b	0.08354839
56	0xbdf465f1	-0.11933506
57	0xbd81e66e	-0.06342779
58	0x3e30cf5c	0.17266601
59	0xbda2b0a1	-0.079438455
60	0x3e09da3d	0.13462158
61	0x3aa28078	0.0012397906
62	0xbd7d5ed7	-0.061858024
63	0xbe12670c	-0.14297122
64	0xbd7bfda3	-0.061521184
65	0x3d0c83f8	0.034305543
66	0x3cb2ac17	0.021810574
67	0x3e2e7b4e	0.17039225
68	0x3e10ec96	0.1415275
69	0xbd6a4d6e	-0.05720275
70	0x3e15d31e	0.14631316
71	0x3e216119	0.15759696
72	0xbdaf30b8	-0.08554214
73	0x3df91d8e	0.1216384
74	0x3d9355af	0.07194077
75	0x3c80c826	0.015720438
76	0xbe208839	-0.15676965
77	0xbe1b227b	-0.15149872
78	0x3b0eec99	0.0021808504
79	0xbd783aa2	-0.06060279
80	0x3d9fa301	0.077947624
81	0x3dd83df6	0.10558693
82	0xbca9ddcb	-0.020735642
83	0xbe32fb60	-0.17478704
84	0x3e0720b3	0.13196068
85	0x3d40d60b	0.047079127
86	0xbe1777cd	-0.14791794
87	0x3bea454f	0.0071493755
88	0xbda29137	-0.07937854
89	0x3d4b5d3b	0.04964946
90	0x3e320a51	0.17386748
91	0x3da3d6b8	0.07999939
92	0xbe291c6e	-0.16514751
93	0x3e109da0	0.14122629
94	0xbdcc423e	-0.09973572
95	0xbd110fbc	-0.035415396
96	0xbd26ab3d	-0.04069065
97	0x3e05fa21	0.13083698
98	0x3d3ffa86	0.046869777
99	0xbe0ee8b2	-0.13955954
100	0xbe02da10	-0.12778497
101	0x3dfc6ca2	0.123254076
102	0x3da2761e	0.07932685
103	0x3de8ebe2	0.11373116
104	0xbd0a3d19	-0.033749674
105	0xbe2fc4c5	-0.17164905
106	0xbe285a8d	-0.16440792
107	0xbdce3d97	-0.10070341
108	0xbe1ed532	-0.15511015
109	0x3ceec706	0.029147636
110	0xbd9f5371	-0.07779587
111	0xbd2e4fc7	-0.04255655
112	0x3df7a619	0.120922275
113	0xbd332588	-0.043736964
114	0x3cb721b3	0.022354936
115	0x3e2d62ad	0.16932173
116	0x3cf78420	0.03021437
117	0x3da079ca	0.078357294
118	0xbe0b8869	-0.13626255
119	0xbd920689	-0.07130153
120	0x3de44894	0.11146656
121	0x3d97a97d	0.07405374
122	0xbe207355	-0.15668996
123	0xbdecfb0b	-0.1157132
124	0xbd290da7	-0.041272786
125	0xbe35001b	-0.17675821
126	0x3ca14f7a	0.019691218
127	0x3ca28c34	0.019842245

output.weight f4 [5, 128]
0	0xbd68038f	-0.05664402
1	0x3d54802d	0.05188005
2	0x3d9746b6	0.07386534
3	0x3b2bcdff	0.0026215313
4	0xbd8c072a	-0.06837304
5	0xbd7534e9	-0.059864912
6	0xbd9e3eea	-0.07726844
7	0xbcc47162	-0.023979846
8	0x3d408fb9	0.047012065
9	0x3d287a85	0.04113247
10	0xbce1a2ff	-0.027543543
11	0xbbb6fcdc	-0.0055843424
12	0xba54f26f	-0.00081232836
13	0x3d590585	0.05298378
14	0xbc3ea9d7	-0.011637173
15	0x3d9d7c55	0.0768973
16	0x3c14d0e7	0.009083009
17	0xbcc0b866	-0.023525428
18	0xbcf1bb13	-0.02950815
19	0xbbb054d1	-0.0053812047
20	0xbd95d85a	-0.073166564
21	0x3db19b8e	0.08672248
22	0xbc24f9cc	-0.010069322
23	0xbc2907e6	-0.010316825
24	0xbd9f468b	-0.07777127
25	0x3c910e8d	0.017707134
26	0x3c816315	0.015794316
27	0xbd211d12	-0.039334364
28	0xbd8b5020	-0.06802392
29	0xbd096e46	-0.03355243
30	0xbd9f6974	-0.077837855
31	0x3cdad409	0.026712434
32	0x3d0cd769	0.03438512
33	0x3cd54a32	0.026036356
34	0x3d4dd4df	0.050251838
35	0xbd3d829f	-0.046267148
36	0x3d4ca7c7	0.049964692
37	0xbcf66eee	-0.030082192
38	0xbd93754e	-0.072001085
39	0xbd14f3bb	-0.036365252
40	0xbcdd7030	-0.027031034
41	0x3d1334eb	0.03593914
42	0x3da1e203	0.079044364
43	0x3d2364ed	0.039891172
44	0xbcf67bc6	-0.030088317
45	0xbcf80b05	-0.030278692
46	0x3c2ef81d	0.010679272
47	0xbce414aa	-0.027841885
48	0x3d71fef6	0.05908104
49	0x3ce9222c	0.028458677
50	0xbd9d8d74	-0.07692996
51	0xbda083b0	-0.078376174
52	0xbd85142e	-0.064979896
53	0x3c633d5f	0.0138696125
54	0x3d82d4d6	0.063882515
55	0x3d4bbf9e	0.049743287
56	0x3cd0ed36	0.025503736
57	0xbd3c11b3	-0.045915317
58	0xbc40aab2	-0.011759447
59	0xbc12aa4e	-0.008951737
60	0x3d93562c	0.0719417
61	0x3cdeb6bc	0.027186744
62	0x3c251ca1	0.010077626
63	0xbd8330b4	-0.06405774
64	0xbcce5b0d	-0.0251899
65	0xbd9a11ae	-0.075229034
66	0xbb176f4a	-0.0023107105
67	0x3d7c5b63	0.06161059
68	0xbdafe760	-0.08589053
69	0x3c905158	0.017616913
70	0xbbc318f1	-0.005953901
71	0xbd494269	-0.0491356
72	0x3d77ced9	0.0605
73	0xbd6dd76d	-0.058066774
74	0x3ba50676	0.0050361706
75	0xbd180da4	-0.037122384
76	0xbd09490a	-0.03351692
77	0x3d8b3974	0.06798068
78	0xbd2c305d	-0.04203831
79	0x3cb4d106	0.022072326
80	0x3cb2059c	0.02173119
81	0xbc7d1414	-0.0154466815
82	0xbccf2845	-0.025287757
83	0x3db099fb	0.086231194
84	0x3c9dfc2d	0.019285286
85	0x3d81ebad	0.0634378
86	0xbda97378	-0.08273977
87	0x3d866503	0.06562235
88	0xbd16bbce	-0.0368002
89	0xbd831f5a	-0.06402464
90	0xbcd40d35	-0.025885204
91	0xbd862070	-0.06549156
92	0xbd93fc82	-0.072258964
93	0x3cedc517	0.029024644
94	0x3b73e229	0.003721366
95	0x3d844292	0.0645801
96	0x3d50202a	0.050811924
97	0x3d3d1402	0.04616166
98	0x3d176100	0.03695774
99	0x3da277d4	0.07933012
100	0xbd71af90	-0.05900532
101	0x3bc4a3f9	0.0060009924
102	0x3c9794da	0.018503595
103	0xbd85d85d	-0.06535409
104	0x3bb8ae25	0.005635994
105	0x3ce8c569	0.028414445
106	0xbd54114b	-0.051774304
107	0xbd7b3160	-0.061326385
108	0x3d335ef2	0.04379172
109	0xbc342463	-0.010995003
110	0xbd56d977	-0.052453484
111	0xbc30e2f9	-0.010796302
112	0x3ce5007a	0.027954329
113	0x3d374a33	0.044748496
114	0x3c9b9006	0.018989574
115	0x3d5b387e	0.053520672
116	0x3d8c84f9	0.068613
117	0x3c0ecbb6	0.008715561
118	0xbd7d6b3c	-0.061869845
119	0x3d52d96c	0.05147688
120	0xbd9f732c	-0.07785639
121	0x3db1652b	0.086618744
122	0xbce1d5a6	-0.027567696
123	0xbd208f11	-0.03919894
124	0xbd34366d	-0.043997217
125	0x3c689486	0.014195567
126	0x3ccea1c5	0.025223622
127	0xbd886c8e	-0.0666133
128	0xbc5cf410	-0.013485923
129	0xbd0eed8a	-0.034894504
130	0xbda58ff1	-0.08084095
131	0x3c9488fc	0.018131725
132	0xbd734ec7	-0.0594013
133	0x3d375274	0.044756368
134	0xbce3f229	-0.027825432
135	0xbceb733f	-0.028741477
136	0xbd7969ea	-0.060892023
137	0x3cfac17f	0.030609844
138	0x3d8cc832	0.06874122
139	0x3cf10b63	0.029424375
140	0xbdb1aaef	-0.08675181
141	0x3cb2a5a6	0.021807503
142	0xbd24240c	-0.04007344
143	0xbd61f575	-0.055165727
144	0x3d49a9b3	0.049234103
145	0xbce6858c	-0.028139852
146	0xbd047fc6	-0.032348417
147	0x3d31fa93	0.043451857
148	0x3d6ca7e3	0.057777297
149	0xbcbeb9aa	-0.02328189
150	0xbd9b76a5	-0.07590989
151	0xbc9a82e9	-0.018861251
152	0xbd9439c5	-0.07237581
153	0xbd71f59d	-0.059072126
154	0x3db79192	0.08963312
155	0xbd8da3af	-0.06915986
156	0x3c10b971	0.008833275
157	0xbd4a65ad	-0.04941337
158	0x3c097399	0.008389377
159	0x3dbf3792	0.09336771
160	0xbd551a0d	-0.052026797
161	0x3ad6c3f9	0.0016385309
162	0xbd9c7f8e	-0.076415166
163	0x3d1fa277	0.038973298
164	0x3d40cea5	0.04707207
165	0xbcaa0be9	-0.020757632
166	0xbbd7a4cb	-0.006580924
167	0xbd5cda05	-0.053918857
168	0xbd51fb4f	-0.051265057
169	0x3d1f11eb	0.038835447
170	0x3d3d9c7b	0.04629181
171	0xbd54908c	-0.051895663
172	0xbd9b5ae6	-0.07585697
173	0xbc903047	-0.017601145
174	0xbc0b0e4d	-0.008487296
175	0xbd3c7f5a	-0.04601989
176	0x3d97b73a	0.074079946
177	0xbd204e6b	-0.039137285
178	0xbc2523a8	-0.010079302
179	0x3d78c540	0.060734987
180	0x3d3aa6e7	0.045569327
181	0x3da3ae6c	0.07992253
182	0x3ba57c03	0.0050501837
183	0x3d2fa15e	0.0428785
184	0xbca45df7	-0.020064337
185	0x3d812724	0.063062936
186	0xbc905782	-0.017619852
187	0xbc4d4c6f	-0.01253043
188	0x3bfe7067	0.0077648642
189	0xbd8c40ef	-0.068483226
190	0xbd3b878e	-0.045783572
191	0x3daa561b	0.083172046
192	0xbc39eb8d	-0.011347664
193	0x3c2237b0	0.009900972
194	0xbd2c9a8c	-0.042139575
195	0xbd313e94	-0.04327257
196	0x3d8bd798	0.068282306
197	0xbda38ec5	-0.079862155
198	0xbc7dc124	-0.015487943
199	0xbd60d103	-0.05488683
200	0xbda5ad7d	-0.08089731
201	0x3db57441	0.08860064
202	0x3c8e36fb	0.017360201
203	0xbbedd7ac	-0.007258376
204	0x3d3977ed	0.045280386
205	0x3da055fc	0.078289
206	0x3d90ae36	0.07064478
207	0x3c60e576	0.013726583
208	0xbd27fac9	-0.04101065
209	0x3d50bfd7	0.050964203
210	0xb977457d	-0.00023581642
211	0xbcbd5df0	-0.023116082
212	0xbd94c5a5	-0.0726426
213	0xbd403bce	-0.046932034
214	0xbd336d6e	-0.043805532
215	0xbd4c6a43	-0.049906027
216	0x3d9cdf70	0.07659805
217	0xbd8c4568	-0.06849176
218	0x3db117d1	0.08647121
219	0x3dbd7ad5	0.09251944
220	0xbb37bdde	-0.0028036754
221	0xbd82bcb5	-0.06383649
222	0xba345333	-0.0006878853
223	0xba957330	-0.0011402126
224	0x3b0ddc79	0.0021646305
225	0xbd5708d5	-0.052498657
226	0xbce075a2	-0.027399842
227	0x3b2faa91	0.0026804546
228	0x3c705c6a	0.014670471
229	0x3db42078	0.087952554
230	0xbd5d931c	-0.054095373
231	0xbd572f1f	-0.052535173
232	0x3d340e67	0.043959048
233	0xbcdc6345	-0.026902804
234	0xbd0a9d4f	-0.033841427
235	0x3d8e6dbd	0.06954525
236	0x3d3cd64c	0.046102807
237	0xbc8315d2	-0.016001616
238	0xbd6c7305	-0.05772688
239	0x3c92790a	0.017879982
240	0xbc5423f7	-0.012948028
241	0x3d36b77c	0.044608578
242	0xbd55fa53	-0.05224068
243	0x3d264666	0.04059448
244	0x3dac7225	0.08420209
245	0xbd16939a	-0.036761858
246	0xbca96fc1	-0.020683171
247	0xbdafdbc8	-0.08586842
248	0x3d4cbdcd	0.049985696
249	0x3c82fe44	0.015990384
250	0x3c68a9e0	0.014200658
251	0x3d9911fa	0.07474132
252	0xbd59bd8d	-0.053159285
253	0x3ce9db8e	0.028547075
254	0xbdb351cd	-0.08755837
255	0x3cbf5105	0.023354063

output.bias f4 [5]
0	0xbd8998c4	-0.06718591
1	0xbd1598d2	-0.036522694
2	0x3d0641cb	0.03277759
3	0x3ca440e0	0.020050466
4	0x3d32da5a	0.043665268
