checkpoints/max_height_reward.pth (torch, 16512 bytes, 4 tensors)

input.weight f4 [128, 22]
00000000: e945 f53d 439c 553e 28be 55be 60a5 0a3e
00000010: e700 43be f39e 0ebe e25c 02bc 6ab8 4cbe
00000020: 1901 f93d 4059 c93d cdd8 11be 2231 fbbd
00000030: 16ab 2dbe 8ba7 3c3e dc0d 223d e6da 0dbc
00000040: 0a52 febd 3d37 573d 15fe 4b3e 5f1f d03d
00000050: 4e46 e3bd cc6e a4bd 38bf e23c 9c7f ee3d
00000060: ec62 6a3d e320 af3d 4416 8b3d b25b dd3d
00000070: d32f 883d 026a 85bc ad22 a23d 9358 213e
00000080: 7f0c 873d f88b d8bd b202 11be 8fb6 303e
00000090: 769c d13d 2ca9 3dbe 07bd 2fbe 6274 5d3e
000000a0: 1c96 bebd 7c99 5e3e ce11 113e 312e 323e
000000b0: 02f2 18be 72ad ba3c 28e0 9e3d c0ff 403e
000000c0: 5ddd 00be 30d7 41be acd9 85bd 1140 e0bd
000000d0: 9561 1f3e f185 113e c8a9 2b3d 9c2e c13d
000000e0: 9bad 453e 04c1 3a3e 3cff 353e 97b8 d5bd
000000f0: 99c2 d03d b690 fc3d 5d10 223e bbf1 00be
00000100: 0b4b 133d 5b73 7e3d 9818 84bc 1503 3d3e
00000110: 3083 993c 7cd5 923d 488b 44be 315a 1fbe
00000120: 86c1 083e 84b3 793d 8ebc 383e 3e65 d43c
00000130: 4ee9 d83d 520f a23d 0f53 ffbd 756e e53d
00000140: 0d02 07be 5523 38bd 2572 e83d a2e5 f63d
00000150: 8dec 24bd fbd6 5c3e 3518 193e 3053 0a3e
00000160: 75b6 2d3e 0a64 59be 8422 42be fc93 9dbc
00000170: a50a 35be ac3e 3abd 24f3 a6bd 2b04 f2bd
00000180: 3357 c43d a19d afbc c414 4d3e f806 5f3d
00000190: 212a bcbd 11ef 3b3c 2416 a43c 288a 98bd
000001a0: 5710 bb3b c74b 953d a56d e5bd 89c0 4ebe
000001b0: c156 28be e145 a7bc a700 01be e4ae 3d3e
000001c0: fe2b c83d 24a9 7b3d 0615 883c 38ca 11be
000001d0: 7df8 d2bc 463a 53bd 6831 10be 8595 503e
000001e0: a674 16be 429b ec3c 1126 8ebd 09ab 633b
000001f0: 7d9c 313e 1bf4 433e c2b6 47bc 18a2 293e
00000200: ebf4 febd cece 3fbe ec93 45bc eaaf 233e
00000210: 03db b83d 8544 fcbd 5dd3 39be 5d07 3dbe
00000220: a69e 43be a360 283e 5972 54be e910 2b3e
00000230: da55 d23d c9ea 1ebe bc78 2d3d 026a b5bd
00000240: 817d 3c3e 522e c2bd cdc1 1ebe 714f b8bd
00000250: a8a8 693d 208a c8bd 0e83 153c 97a6 febd
00000260: 9c86 3dbe d4a3 f53c e421 3b3d 1848 d6bd
00000270: 81a7 29be 926c 0ebe 7cc4 483d 09e9 0ebb
00000280: 2916 2ebe 92cd 58bd 8fbb 413e 2927 2dbe
00000290: d6cf aa3d eec8 ecbd 2027 42be 6f16 16be
000002a0: c55c 453e c88c beba fc4b d83d 2da2 17be
000002b0: fb88 22bd 0976 27be 8b9d 43bd c565 e83c
000002c0: 43ea 15be 33f0 ef3d eafd 54be c6ff eebd
000002d0: a144 cd3d 59f1 343e e400 93bc 87a6 2b3d
000002e0: 45e5 2e3e 7fb6 f23d 5d6a 0f3e 54ab 333c
000002f0: e0d3 bc3d 9f83 eebd d6f2 5bbe 69aa febd
00000300: 4add 11be 8bfe c9bc 0171 90bc a224 1ebe
00000310: cc66 36bd 9557 c03d 6f9d 2abe 0aee 48be
00000320: 501a 563e f5f0 7dbd 834d 583e ac9e 0abc
00000330: 941e c23c bb90 76bd c504 ffbd 3440 08be
00000340: 5de5 043d fbaf 24be 9416 1cbd e6d4 d23d
00000350: 280e 083e 90a6 16be ac29 b5bc da25 00be
00000360: 5742 6a3d fd73 0e3d 6a05 723d 2b6e 15be
00000370: 595c 2b3e ea99 60bd 0bcd 35be 0877 243e
00000380: a058 0b3e d968 0dbd 97dc 0bbd b290 fbbd
00000390: 1b81 1ebe bf4f bd3d 537b 4f3e 965d 523e
000003a0: c02b db3d d53b 95bd f1e9 293e dd23 aabb
000003b0: c281 673d f113 ec3d 3aa0 0abe d093 afbd
000003c0: b62b 9a3d e342 4c3e d17c 17bc e282 a93d
000003d0: d737 493d 841f 463d 0ccd 27bd 5952 40be
000003e0: 25a8 d63b e07b 5dbe dc68 36be 3d57 35be
000003f0: 8f38 81bd b2ea 39be 6567 163e e34e c13d
0.11976225 0.2086039 -0.2087332 0.13539648 -0.19043313 -0.13927822 -0.007956715 -0.19992223
0.121584125 0.09831476 -0.14242859 -0.12265231 -0.16959795 0.18423288 0.039564 -0.0086581465
-0.124179915 0.052542914 0.19921143 0.101622336 -0.11097394 -0.08028945 0.02767907 0.11645433
0.057223246 0.085511945 0.06791356 0.10808505 0.06649747 -0.0162859 0.0791677 0.15756445
0.0659418 -0.10573572 -0.14161184 0.1725714 0.10234921 -0.18521565 -0.17161952 0.21626428
-0.09305975 0.21738237 0.14166948 0.17400433 -0.14936069 0.022787783 0.07757598 0.18847561
-0.12584443 -0.18929744 -0.06535658 -0.1094972 0.15564568 0.14211251 0.041909963 0.09432718
0.19304506 0.18237692 0.17773145 -0.10435598 0.101933666 0.12332289 0.15826555 -0.12592213
0.03596024 0.06212173 -0.016125008 0.18458207 0.018739313 0.07169625 -0.19193757 -0.15561749
0.13355073 0.060962215 0.18040678 0.025927182 0.10591374 0.07913078 -0.12467014 0.11202709
-0.13184376 -0.04495557 0.11349896 0.12055518 -0.040264655 0.21566384 0.1495064 0.13508296
0.16964133 -0.21229568 -0.18958479 -0.019235604 -0.17679842 -0.045469925 -0.08151844 -0.11817201
0.095869444 -0.021437468 0.20027453 0.054450005 -0.09187723 0.011470572 0.020030089 -0.07448226
0.005708735 0.07289844 -0.11202554 -0.20190634 -0.16439344 -0.020419063 -0.12597905 0.18523747
0.09774016 0.061440602 0.016611587 -0.14237297 -0.025753254 -0.051569246 -0.14081347 0.20369537
-0.14692935 0.028882626 -0.06940854 0.0034739396 0.17344852 0.19136088 -0.012189569 0.1656574
-0.12449058 -0.18731233 -0.012059193 0.15985075 0.09026148 -0.123177566 -0.18147035 -0.1845984
-0.19103488 0.16443114 -0.20746745 0.1670567 0.10270281 -0.15519251 0.04235147 -0.0885811
0.18407251 -0.09481491 -0.15503617 -0.08999527 0.05704561 -0.0979197 0.009125484 -0.12434118
-0.1850838 0.029985346 0.045686617 -0.104629695 -0.16567804 -0.13908604 0.049015507 -0.002180638
-0.17000641 -0.052930422 0.18919204 -0.1690947 0.08340423 -0.11561762 -0.18960238 -0.14656995
0.1927367 -0.0014537806 0.10561368 -0.14807959 -0.039681416 -0.1635362 -0.047757667 0.02836884
-0.14640145 0.11715736 -0.20799986 -0.11669879 0.100228556 0.17670192 -0.01794476 0.04190686
0.17079647 0.118512146 0.14005418 0.010966141 0.092200994 -0.116461985 -0.21479353 -0.12434847
-0.14244571 -0.024657508 -0.01763201 -0.15443662 -0.04453163 0.09391705 -0.16661619 -0.19622055
0.20908475 -0.061997373 0.21123318 -0.008460682 0.023696221 -0.06019662 -0.124520816 -0.13305742
0.0324453 -0.16082756 -0.03810747 0.102945134 0.1328665 -0.14711976 -0.022114597 -0.12514439
0.057192173 0.034778584 0.059087195 -0.14592807 0.16734447 -0.054834284 -0.17753999 0.16061032
0.13608027 -0.03452382 -0.034145918 -0.12283458 -0.15478937 0.09243726 0.20261888 0.20543513
0.10701704 -0.07286803 0.16593148 -0.0051922635 0.05652023 0.11527241 -0.13537684 -0.08573115
0.075278684 0.1994739 -0.009246067 0.08276917 0.04912552 0.0483699 -0.040967032 -0.18781413
0.006550806 -0.21629286 -0.17813438 -0.1770906 -0.06309616 -0.18155935 0.1468788 0.094388746

input.bias f4 [128]
00000000: cfc7 88bd 5db0 393e ce1d 023e 3c00 cb3c
00000010: ad1a dd3d 12c2 153e 8cf2 4f3e b136 53bb
00000020: 6a24 483e c268 483e a3d2 f7bc 58f7 05bd
00000030: 50a5 e33d 3d59 3cbe f030 263e 0869 2fbe
00000040: cdf5 6d3d 685b b9bb 5b8f f03d 94d4 053e
00000050: 5843 cbbd aae9 dd3d 5ab2 303d e339 0bbd
00000060: b581 d03d 951e 0c3e 3a2b 8abd 14d1 a7bd
00000070: aa39 35bd 5235 b03d 4dc4 51be 41c7 c23d
00000080: 580d 92bd 7cbb 0e3c fb24 dfbc 50a2 033d
00000090: ef67 103d dfe3 583e c9fd 093e 528a 223e
000000a0: 4a00 873d 16f2 f4bd f82b 183e 75e7 06be
000000b0: d28e 3c3e 1169 89bd a79d 1f3e 38d9 763d
000000c0: d21f 493e cc32 3d3e 10bb 3f3e 2a83 3cbc
000000d0: 263d ddbd daa8 95ba cd92 ffbd e88c f7bc
000000e0: e039 c6bd 328a 46be a5df 99bd 5a0c a63d
000000f0: 6cef ae3d a3b2 ee3d 5aec e53d fde7 2cbd
00000100: 16e5 ae3d ca56 d4bd d654 87bd a013 4dbe
00000110: 7bd4 543e f27c 013e 1269 c93d 95af 36bc
00000120: 0f5c ebbd 2200 f13c ed15 1abe bfa3 eebd
00000130: 177d 05be 2356 a4bd b6f8 3dbe 31d2 1e3e
00000140: a452 ae3d 4c76 b6bd 2004 a6bd 06af 1fbd
00000150: b55b 19bd c8b3 37be b674 3e3e 3397 bebc
00000160: 3a8e 123e 8f1c cbbd 6b13 0b3e 9b74 3abe
00000170: 1d01 0d3e 872f 133e c2e4 74bd e941 323e
00000180: ae9b 1a3e fa62 113d a292 4f3e 4043 e93d
00000190: 26a1 d93d 7076 2cbe fffc 18be eaf3 b83d
000001a0: 84c5 0e3e 4cff b9ba 3288 253e 2274 1fbc
000001b0: f65b dabd b6a7 37bd 0c14 2c3c c072 183d
000001c0: 13e2 7fbc 12c1 3bbd 8520 4cbe 2ddb 2ebe
000001d0: 7e05 25be 54fe c6bd e491 7ebd e193 75bc
000001e0: 29ef fe3d eefa 22be 371d 433e 9399 ea3c
000001f0: ab7b ae3d 5eb1 163e b920 28bd bee6 2f3e
-0.066787355 0.18133684 0.12706682 0.024780385 0.107961036 0.14624813 0.20307368 -0.0032228644
0.19545141 0.19571212 -0.030251807 -0.03270659 0.11115515 -0.18393417 0.16229606 -0.1712991
0.058095742 -0.0056566484 0.11746093 0.13069373 -0.09924954 0.108355835 0.04313884 -0.033990752
0.1018099 0.13683541 -0.06746526 -0.08194175 -0.044244446 0.0860392 -0.20485039 0.09510661
-0.07131451 0.008711692 -0.027239313 0.032137215 0.03525537 0.21180676 0.13475718 0.15873078
0.06591852 -0.11960237 0.14860523 -0.13174231 0.18413857 -0.06709493 0.15587483 0.06026575
0.19641045 0.18476409 0.18723702 -0.011505881 -0.10802679 -0.001141812 -0.12479172 -0.030218557
-0.096790075 -0.19388655 -0.0751336 0.081078246 0.0854176 0.11655166 0.11226721 -0.04221343
0.085397884 -0.10368116 -0.06607978 -0.20027018 0.2078418 0.12645319 0.09834494 -0.01115026
-0.11492168 0.029419009 -0.15047427 -0.11652326 -0.13035999 -0.08024242 -0.18551907 0.15509869
0.08511856 -0.08909282 -0.081062555 -0.038985275 -0.037440974 -0.17939675 0.18599209 -0.023265457
0.14312068 -0.099175565 0.13581626 -0.18208544 0.13769956 0.14373599 -0.059788473 0.17407955
0.1509845 0.035494782 0.2027078 0.1138978 0.1062644 -0.16842055 -0.1494026 0.09030898
0.13942534 -0.0014190464 0.16165236 -0.009732278 -0.106620714 -0.044837676 0.010502826 0.03721881
-0.015617865 -0.045838423 -0.1993428 -0.17075796 -0.16115376 -0.09716478 -0.06215085 -0.01498887
0.1244796 -0.15916035 0.19054113 0.028637683 0.085196815 0.14716098 -0.04104683 0.17177865

output.weight f4 [5, 128]
00000000: b197 a0bc 0b0a a3bd e808 3cbd cfa4 94bb
00000010: 1dcc bfbc 0d41 adbc c4cf 8d3d 7904 2cbc
00000020: 83b6 0a3d c3ed 863d 87a1 913c b549 a93d
00000030: fb52 c6bc c481 a6bc 4a0c d93c 63fc d8bc
00000040: 3ab6 98bd 8db5 99bc c7f9 73bd 7e61 16bc
00000050: d4ab 863d 0d70 2ebd 7873 8c3d eed4 303c
00000060: 6896 e83c 0e21 d93b cb01 36bd 65d3 e6ba
00000070: a1cc c03c 8e9b 83bd 5fce f4bb 16b9 613c
00000080: 325f a5bc 8efc 543d ac77 253c f33c c1bd
00000090: 5ae2 9d3d 8be3 553d 481c 8bbd bdc8 323d
000000a0: 08a1 933d 6131 9cbd 9bb0 9bbd 6a37 963d
000000b0: 6c98 28bd 170c a1bd 00cb 92bc feaf 833d
000000c0: 3964 753b 4fd4 2f3d ed55 57bc 967a 73bd
000000d0: 7bd4 b3bd 094a ea3c 6241 71bb ca36 febb
000000e0: e190 883d 41d6 82bd 8549 81bd 009b b73b
000000f0: 232e 053d 35c7 7c3d be1d b43b 239f 38ba
00000100: e03e e1bc f25d 0f3c 2958 a9bd ab78 22bc
00000110: 865f 09bc c7a9 c4bc 314e a33c 7072 813d
00000120: 91b8 a33d 2be3 833d 5b14 2dbd 1887 ddba
00000130: 65e5 82bb bb8b c3bc 3374 2c3d b187 bdbd
00000140: 11c6 acbd 4a7b c3bc e742 be3c 98d8 4dbd
00000150: 0922 f23c b5a4 65bd 83dc 373d dde2 a8bd
00000160: 2779 8f3d 29bf 243d 22cd 80bb ca9f aebd
00000170: 4f27 80bd 2898 183b 3562 5e3d a4cf 033d
00000180: 5084 753c eb0f 0d3d 6a73 a5bc 13a3 73bd
00000190: 2c34 bdbd dcf2 4dbb d3cc 863c 07ec 313d
000001a0: c6c3 e3bc c80a a33d a017 543d f53d a1bd
000001b0: 8f4d f43a 6e46 763d c84b b13b 1fb8 ee3c
000001c0: dabb 12bd c3c2 073d 1180 2f3d 4bc4 893d
000001d0: fb63 f3bc 8fb3 4a3a f673 42bd 67cd 95bd
000001e0: 7d35 b7bd ab9f 083c ff1f 793d 06d6 abbd
000001f0: 1bec 3a3d 5648 cf3c 9652 853c 7dd8 003c
00000200: 5c28 e9bc fc75 2dbd 2479 a5bd 6f77 c13c
00000210: b5bc 0abd 6cee bc3c 7c90 b8bc 02b2 7c3d
00000220: e9cd abbd bbe8 31bd ec6d b0bd 7dda 8e3d
00000230: 871b 78bd 5d4a 61bd 1c57 99bd 0ff5 2abd
00000240: 2a0a 263c 3186 9abd 218e b7bd 59e0 6f3c
00000250: c218 a5bc 8f51 aabd 7c12 793c 04eb ab3d
00000260: 430f 5c3c 05a8 9a3d b7bd 6dbd e9c3 ba3c
00000270: 6688 50bc 8e56 8e3d d82f 753d d0ca 9f3d
00000280: ae71 943d 505c 3c3d fb11 4abd 45cf 783d
00000290: 7be5 a63c 6484 6cbd 0402 a43d 1d9c c53b
000002a0: 9c14 f53c ffde b1bd 13cb a43b 6fab a1bd
000002b0: 91e3 c8bc 062f 09bc 1cd0 a33d 1230 12bd
000002c0: 698f fa3c c6cb f83c b318 c4bc 49ca ab3d
000002d0: a990 9dbd a966 60bd 9968 983b d89a 893d
000002e0: d98e 27bd b9ec 733d 9c5c a13d 622b 2ebd
000002f0: 88b3 1cbc d0ef b3bb bc95 d73c 5d63 603c
00000300: b3cb 8d3c 0b03 cabc 7595 9cbd 5e24 5abd
00000310: a5bf 84bc c595 233d 7a99 9fbd a384 86bd
00000320: 4db1 7b3b 83a0 6fbd aa66 a23d bf16 a6bd
00000330: 7812 2e3d c955 063d 467f 24bd 856e fd3c
00000340: 14eb a03d 9495 a13c 11ab c4bc 65da 253d
00000350: 3dd9 7a3d 55d9 8dbd dd93 9c3d b08a a03d
00000360: 36cb bfbc 72df 06bd 88bc b33c 55c2 8cbd
00000370: 85e5 8a3d 5d3c 32bb 2095 80bd fe2c 19bd
00000380: cf92 10bd 2171 b03d ccf4 753d 8395 8ebc
00000390: 0f0c 6fbd ba53 7b3c 5c18 65bd e8bf fa3b
000003a0: 5273 2b3d bfb0 1dbd fac1 14bd ce2c 043d
000003b0: 6a7f 11bd 00be 9ebd e9a6 573d b51c 123d
000003c0: 6b96 3bbd 1828 82bd ed6a 1f3d fa05 8fbd
000003d0: 8b82 093c 910b 87bd 67e1 5a3d 3eb3 193d
000003e0: e925 babc 97b6 603d 2edb 5e3c 4738 9fbd
000003f0: 0953 99bd 950f 073d 303a a23d c207 5c3c
-0.019603582 -0.079609 -0.04590693 -0.0045362483 -0.023412758 -0.021149183 0.06924394 -0.010499113
0.033865463 0.06588318 0.017777218 0.082660116 -0.02420949 -0.020325549 0.026495118 -0.026487535
-0.07456632 -0.018763328 -0.059564378 -0.009178517 0.06575742 -0.04258733 0.068579614 0.010792954
0.028392032 0.006626255 -0.044435304 -0.0017610608 0.023535075 -0.06426154 -0.0074708904 0.013777038
-0.020186994 0.051998667 0.010099333 -0.09435453 0.07709189 0.052218955 -0.067925036 0.04364847
0.07208449 -0.07626606 -0.07602044 0.07334788 -0.041160986 -0.07863634 -0.017919064 0.06430052
0.003744377 0.042927083 -0.013143045 -0.05944308 -0.08780762 0.028599756 -0.0036812653 -0.007757996
0.066682585 -0.06388522 -0.06312851 0.0056031942 0.032514703 0.061713416 0.0054967096 -0.0007042756
-0.027495801 0.008750426 -0.08268768 -0.009916465 -0.008384591 -0.024006737 0.019934746 0.06320655
0.079941876 0.06439813 -0.04225574 -0.0016901223 -0.003994631 -0.02387034 0.042103004 -0.09254397
-0.08436216 -0.0238625 0.02322526 -0.050255388 0.029557245 -0.05606528 0.04488803 -0.08246396
0.0700553 0.040221367 -0.0039307037 -0.08526571 -0.062574975 0.0023284052 0.054292876 0.032180443
0.014985159 0.03443901 -0.020196635 -0.05948169 -0.092384666 -0.0031425273 0.01645509 0.043437984
-0.027803313 0.07961041 0.051780343 -0.078731455 0.0018638837 0.06012576 0.005410645 0.02914053
-0.03582368 0.033144724 0.042846743 0.06726893 -0.02971076 0.0007732445 -0.04747387 -0.07314568
-0.08945749 0.008338849 0.06082153 -0.08390431 0.045635324 0.025303047 0.016274732 0.007864115
-0.028461628 -0.042348847 -0.08079746 0.02361652 -0.03387137 0.023062907 -0.022529833 0.0616932
-0.083888836 -0.04343484 -0.08614716 0.06975267 -0.060573127 -0.05500256 -0.07487318 -0.041737612
0.010134259 -0.07545126 -0.08962656 0.014640891 -0.020153407 -0.08316337 0.015202161 0.08394435
0.013431373 0.075515784 -0.058042254 0.022798495 -0.012727832 0.06950103 0.05986008 0.07802355
0.07248245 0.045986474 -0.049333554 0.060744543 0.020373097 -0.057743445 0.08008197 0.006030573
0.029917054 -0.08685111 0.005029091 -0.078940265 -0.024522575 -0.008373028 0.07998678 -0.035690375
0.030585961 0.030370604 -0.023937559 0.08388192 -0.07693607 -0.054785404 0.004651141 0.06718987
-0.040907715 0.05955193 0.07878992 -0.04252184 -0.009564288 -0.0054912344 0.026316516 0.013695565
0.017309045 -0.024659654 -0.07645694 -0.05325734 -0.016204664 0.039937753 -0.07792945 -0.06568267
0.003840524 -0.058502685 0.07929738 -0.08109807 0.042498082 0.032796655 -0.04016044 0.030936489
0.078573376 0.019724645 -0.024007352 0.04049148 0.06124233 -0.069262184 0.0764539 0.078389525
-0.023412328 -0.032927938 0.021940485 -0.068730034 0.067820586 -0.0027196624 -0.06278443 -0.037396424
-0.035296258 0.086153276 0.06004791 -0.017405277 -0.05836111 0.015339786 -0.055931434 0.0076522715
0.041858025 -0.038498636 -0.036317803 0.03226929 -0.035521902 -0.077510834 0.052649412 0.03567191
-0.045797747 -0.063553035 0.03892033 -0.06983562 0.00839294 -0.06594003 0.053437617 0.037524454
-0.022723155 0.05486163 0.013602061 -0.07774406 -0.07486541 0.032973845 0.07921255 0.013429584

output.bias f4 [5]
00000000: 4462 353d 9464 c43b 2fe6 1dbd 79b6 8a3d
00000010: a97c 7e3d
0.044283167 0.005993435 -0.0385496 0.06773085 0.062130604
