checkpoints/max_height_positive.pth (torch, 16512 bytes, 4 tensors)

input.weight f4 [128, 22]
0	0x3dea1efa	0.114316896
1	0x3e507d33	0.2036026
2	0xbe5beac8	-0.2147628
3	0x3e038d4b	0.12846868
4	0xbe49c174	-0.19702703
5	0xbe11a48a	-0.14222923
6	0xbc4adce4	-0.012381766
7	0xbe533dca	-0.2062904
8	0x3dec633a	0.115423635
9	0x3dbc8947	0.09205871
10	0xbe106f5c	-0.1410498
11	0xbdf8e435	-0.12152902
12	0xbe2cc504	-0.1687203
13	0x3e36d08f	0.17852996
14	0x3d116ddb	0.035505157
15	0xbbc82777	-0.00610822
16	0xbdf3d5d1	-0.119060166
17	0x3d558991	0.052133147
18	0x3e4a2f34	0.19744569
19	0x3dbb8a83	0.091572784
20	0xbdf0c5de	-0.1175649
21	0xbdb22ad9	-0.08699579
22	0x3c811757	0.0157582
23	0x3dcf8550	0.10132849
24	0x3d279a9b	0.040918928
25	0x3d903991	0.0704223
26	0x3d562325	0.05227961
27	0x3dbb3605	0.09141163
28	0x3d4e0915	0.05030163
29	0xbd034641	-0.03204942
30	0x3d869bb1	0.065726645
31	0x3e15dd68	0.14635241
32	0x3d9e956e	0.07743345
33	0xbdd32423	-0.10309627
34	0xbe16eccb	-0.14738767
35	0x3e294eee	0.16534016
36	0x3dcee545	0.101023234
37	0xbe3dcc69	-0.18535008
38	0xbe2ce229	-0.16883148
39	0x3e554986	0.20828828
40	0xbdd0d440	-0.101967335
41	0x3e4445db	0.19167273
42	0x3dfa9c05	0.122367896
43	0x3e21e2e4	0.15809208
44	0xbe1276bc	-0.14303106
45	0x3ce02efc	0.027366154
46	0x3dab25dd	0.08356831
47	0x3e44f386	0.19233522
48	0xbdf5018a	-0.11963184
49	0xbe3e67de	-0.1859431
50	0xbd7ac43d	-0.061222304
51	0xbdd33835	-0.10313455
52	0x3e26b2d7	0.1627916
53	0x3e15fed2	0.14647987
54	0x3d32ffe6	0.043701075
55	0x3db8840e	0.090095624
56	0x3e4c1f0d	0.1993372
57	0x3e3bd3ea	0.18342558
58	0x3e3a6674	0.18203145
59	0xbddb99b2	-0.107226744
60	0x3dc7d69b	0.097577296
61	0x3df47919	0.1193716
62	0x3e285a2d	0.1644065
63	0xbdf21cbb	-0.11821886
64	0x3d2c2a22	0.04203237
65	0x3d8a07a3	0.06739738
66	0xbc864a8b	-0.016392967
67	0x3e39523b	0.18097775
68	0x3c47fc0e	0.012206091
69	0x3d859b73	0.0652379
70	0xbe475a03	-0.1946793
71	0xbe20a331	-0.15687253
72	0x3e03a117	0.1285442
73	0x3d5d07ea	0.053962626
74	0x3e34178a	0.17587104
75	0x3ca4666a	0.020068366
76	0x3de6ae96	0.112637684
77	0x3dabf346	0.0839601
78	0xbe01dfe1	-0.1268306
79	0x3dd91939	0.10600514
80	0xbe08c64d	-0.13356896
81	0xbd28d8d4	-0.04122241
82	0x3def5639	0.116863675
83	0x3df12750	0.117750764
84	0xbd26f1cd	-0.040757943
85	0x3e4a3001	0.19744875
86	0x3e10d43e	0.14143464
87	0x3e05e31a	0.13074914
88	0x3e2f0236	0.17090687
89	0xbe58f6c8	-0.2118789
90	0xbe407c9c	-0.18797535
91	0xbc8cbe0e	-0.017180469
92	0xbe3726ea	-0.17885938
93	0xbd3dc7dc	-0.04633318
94	0xbdaa49a3	-0.08314826
95	0xbdf57d33	-0.119867705
96	0x3dc2765c	0.094952315
97	0xbcbd14fb	-0.023081293
98	0x3e4e9059	0.20172252
99	0x3d59b458	0.053150505
100	0xbdbcfb27	-0.09227591
101	0x3c83a151	0.016068133
102	0x3ca50c76	0.020147543
103	0xbd980a9d	-0.07423899
104	0x3bb3fca6	0.0054927645
105	0x3d964e6e	0.07339178
106	0xbde47f61	-0.11157108
107	0xbe4c19e8	-0.19931757
108	0xbe273272	-0.16327837
109	0xbcc5d632	-0.024149988
110	0xbdf4d0ec	-0.11953911
111	0x3e4295ee	0.19002506
112	0x3dd26b43	0.10274365
113	0x3d85c62e	0.065319404
114	0x3cadaa82	0.021199469
115	0xbe0c5583	-0.13704495
116	0xbca7d2d3	-0.020486271
117	0xbd3c8b95	-0.046031553
118	0xbe0af506	-0.13570032
119	0x3e53450d	0.2063181
120	0xbe15dd61	-0.1463523
121	0x3ceb80dd	0.02874797
122	0xbd85ca23	-0.06532695
123	0x3b83ec25	0.0040259534
124	0x3e3248f5	0.17410643
125	0x3e44cedb	0.19219534
126	0xbc5ef417	-0.013608
127	0x3e2bc0ef	0.16772817
128	0xbdf3aa2a	-0.118976906
129	0xbe3ced50	-0.18449903
130	0xbbf30544	-0.007416399
131	0x3e29e55d	0.16591401
132	0x3db05065	0.08609084
133	0xbe0149ce	-0.1262581
134	0xbe3cd017	-0.18438755
135	0xbe43900e	-0.19097921
136	0xbe4706e6	-0.19436225
137	0x3e23a244	0.15979868
138	0xbe58f999	-0.21188964
139	0x3e276455	0.16346867
140	0x3dcb9bbe	0.09941815
141	0xbe1d96bd	-0.15389533
142	0x3d2c3dad	0.042051006
143	0xbdb67c02	-0.08910371
144	0x3e3a65d6	0.1820291
145	0xbdc0a714	-0.094068676
146	0xbe1a3859	-0.15060557
147	0xbdb7575c	-0.08952209
148	0x3d6d3d5b	0.05791984
149	0xbdccd38f	-0.10001289
150	0x3baa0daa	0.005189617
151	0xbdfbe66e	-0.1229981
152	0xbe418c09	-0.18901075
153	0x3cd23f2f	0.025664894
154	0x3d3ca5cc	0.046056554
155	0xbdd8001d	-0.105468966
156	0xbe283f3d	-0.16430373
157	0xbe0d3ec5	-0.13793476
158	0x3d46410a	0.04840187
159	0x3af1ee5b	0.0018457876
160	0xbe2b0703	-0.16701894
161	0xbd54b2df	-0.051928397
162	0x3e40ea8f	0.18839477
163	0xbe2f4e70	-0.17119765
164	0x3dacabea	0.084312275
165	0xbdf089b9	-0.117450185
166	0xbe42f1eb	-0.19037597
167	0xbe13e6f1	-0.14443566
168	0x3e40c08a	0.18823448
169	0x3b200382	0.0024416153
170	0x3dda7182	0.10666181
171	0xbe15e0b1	-0.14636494
172	0xbd211a15	-0.039331514
173	0xbe2e67a8	-0.17031729
174	0xbd456985	-0.048196334
175	0x3cfde504	0.030992992
176	0xbe1e3b0e	-0.15452215
177	0x3ddde071	0.108338244
178	0xbe5e5cbe	-0.21715066
179	0xbe00d4ef	-0.12581228
180	0x3db901e1	0.090335615
181	0x3e2a493b	0.16629498
182	0xbcdfaa25	-0.02730281
183	0x3d037553	0.03209431
184	0x3e25d8b9	0.16195954
185	0x3de3761c	0.11106512
186	0x3e149ded	0.14513369
187	0x3c19eb74	0.009394515
188	0x3db4f813	0.08836379
189	0xbdef6bb2	-0.11690463
190	0xbe567f2d	-0.20946951
191	0xbe0127f5	-0.12612899
192	0xbe0e2ff8	-0.13885486
193	0xbce447fe	-0.02786636
194	0xbcc3ffeb	-0.023925742
195	0xbe263b31	-0.16233517
196	0xbd655ef8	-0.055998772
197	0x3daabe15	0.083370365
198	0xbe2917b7	-0.16512953
199	0xbe49b489	-0.19697775
200	0x3e594e7c	0.21221346
201	0xbd7179ff	-0.058954235
202	0x3e58bffe	0.21166989
203	0xbc253eb6	-0.010085752
204	0x3ce4e336	0.027940374
205	0xbd60de03	-0.054899227
206	0xbdf8148c	-0.12113294
207	0xbe08b338	-0.13349617
208	0x3d0f3a91	0.034967963
209	0xbe2d0a26	-0.16898403
210	0xbd1c7d12	-0.038205214
211	0x3ddabfba	0.106811
212	0x3e0aeccb	0.13566892
213	0xbe1dddbe	-0.15416619
214	0xbcbde066	-0.02317829
215	0xbdfaa738	-0.12238926
216	0x3d7c0efe	0.061537735
217	0x3d642bb2	0.055705734
218	0x3d836516	0.06415765
219	0xbe14b380	-0.14521599
220	0x3e24b258	0.16083658
221	0xbd80bad8	-0.062856376
222	0xbe3e1227	-0.18561612
223	0x3e1b7494	0.1518119
224	0x3dfc0ab2	0.123067275
225	0xbd4084ad	-0.04700153
226	0xbd369c1f	-0.044582482
227	0xbe05f894	-0.13083106
228	0xbe244655	-0.16042455
229	0x3db4a8ee	0.08821283
230	0x3e57ad0f	0.2106211
231	0x3e5069f8	0.20352924
232	0x3dd90867	0.10597306
233	0xbd92eba5	-0.07173852
234	0x3e25fee3	0.16210513
235	0xbc326539	-0.010888391
236	0x3d6104b8	0.05493614
237	0x3ddffb85	0.109366454
238	0xbe0f40d2	-0.1398957
239	0xbdc1d510	-0.094644666
240	0x3d864233	0.06555595
241	0x3e4145d4	0.18874294
242	0xbbbf479b	-0.0058373935
243	0x3db97190	0.090548635
244	0x3d6c87f2	0.057746835
245	0x3d6f9692	0.058493204
246	0xbced5615	-0.028971711
247	0xbe34b320	-0.17646456
248	0x3c7f7f56	0.015594324
249	0xbe565f48	-0.20934784
250	0xbe30acd7	-0.17253433
251	0xbe32170b	-0.17391603
252	0xbd93075e	-0.071791396
253	0xbe3f4ae1	-0.18680908
254	0x3e164bc5	0.14677341
255	0x3dccb395	0.0999519

input.bias f4 [128]
0	0xbd9c2d3c	-0.07625815
1	0x3e1e0452	0.15431336
2	0x3e08bdd1	0.13353659
3	0x3c0387da	0.008027995
4	0x3ddb949b	0.107217036
5	0x3e152ded	0.145683
6	0x3e5487ee	0.20754978
7	0xbbecbdb0	-0.007224761
8	0x3e40dfcf	0.18835376
9	0x3e5eed57	0.21770225
10	0xbd230227	-0.039796975
11	0xbcaa8823	-0.020816868
12	0x3df0d1f8	0.11758798
13	0xbe3b2f9f	-0.18279885
14	0x3e32dd81	0.1746731
15	0xbe2480f3	-0.16064815
16	0x3d4a408b	0.04937796
17	0x3bd0227f	0.0063517685
18	0x3dcad4cf	0.09903871
19	0x3e0ed112	0.13946941
20	0xbda2ded5	-0.07952658
21	0x3e0387d0	0.12844777
22	0x3d263e0b	0.040586513
23	0xbcb40f6f	-0.021980016
24	0x3df5b32e	0.119970664
25	0x3e18064f	0.14846157
26	0xbd7022f5	-0.058627088
27	0xbdb1c364	-0.08679846
28	0xbcd648b7	-0.02615772
29	0x3dbc1da3	0.0918534
30	0xbe579e8b	-0.21056573
31	0x3d9fc812	0.07801832
32	0xbd911cd9	-0.070855804
33	0x3cea2a58	0.028584644
34	0xbd0b4659	-0.034002636
35	0x3bbeba48	0.0058205463
36	0x3d48747f	0.048939224
37	0x3e53b601	0.20674898
38	0x3e0a40a9	0.13501228
39	0x3e3417c2	0.17587188
40	0x3daa888b	0.08326825
41	0xbe02ab6d	-0.12760706
42	0x3df88462	0.12134625
43	0xbe03bedb	-0.12865774
44	0x3e5163af	0.20448183
45	0xbdaca89e	-0.08430599
46	0x3e1163c9	0.14198221
47	0x3d8007ee	0.062515125
48	0x3e375770	0.17904449
49	0x3e32c735	0.17458804
50	0x3e2cecea	0.1688725
51	0xbd0a7069	-0.03379861
52	0xbdee8ef6	-0.116483614
53	0xbb117a0d	-0.0022197992
54	0xbe03d4c9	-0.1287414
55	0xbd2524fd	-0.040318478
56	0xbdc870ae	-0.09787117
57	0xbe5a0c2b	-0.21293704
58	0xbdcfb325	-0.10141591
59	0x3da2f8ad	0.079575874
60	0x3daa5e71	0.083187945
61	0x3dfb5c7d	0.122735
62	0x3df888ed	0.121354915
63	0xbd28b57f	-0.041188713
64	0x3d9770e9	0.07394583
65	0xbde54ebf	-0.1119666
66	0xbda11e56	-0.07867114
67	0xbe596a07	-0.21231852
68	0x3e5266a4	0.20546967
69	0x3dee04e8	0.116220295
70	0x3dd9c3db	0.106330596
71	0x3c4cb1ce	0.012493564
72	0xbde07f29	-0.10961754
73	0x3d14a24b	0.036287587
74	0xbe2a4bfe	-0.16630551
75	0xbdf98ed2	-0.12185444
76	0xbde573ed	-0.11203752
77	0xbdc7d660	-0.09757686
78	0xbe3b5bbe	-0.18296716
79	0x3e0d8d38	0.13823402
80	0x3da6f5aa	0.081523255
81	0xbdbed62c	-0.09318194
82	0xbdbd102e	-0.09231602
83	0xbd28c022	-0.041198857
84	0xbcafdd6c	-0.021467887
85	0xbe490e7c	-0.19634432
86	0x3e4ac737	0.19802557
87	0xbd289615	-0.041158754
88	0x3e249757	0.16073357
89	0xbdc5d8d9	-0.09660501
90	0x3e0fb94b	0.14035527
91	0xbe3c044e	-0.18361017
92	0x3dd5a8e5	0.10432605
93	0x3e19f5b4	0.15035135
94	0xbd786aa9	-0.060648594
95	0x3e4755d1	0.1946633
96	0x3e22c05d	0.15893693
97	0x3ce554ed	0.027994597
98	0x3e40c79b	0.18826143
99	0x3dcd1866	0.10014419
100	0x3db88cc9	0.09011228
101	0xbe26d2e6	-0.16291389
102	0xbe063e13	-0.13109617
103	0x3dcd70f3	0.10031309
104	0x3dfcf9dd	0.12352345
105	0x3bd35203	0.0064489855
106	0x3e36b7e5	0.17843588
107	0xbcbc0db1	-0.022955747
108	0xbdb31814	-0.08744827
109	0xbd07da2f	-0.03316706
110	0x3c04ae9b	0.00809827
111	0x3ced254f	0.028948454
112	0xbcc13d73	-0.023588872
113	0xbd17d5cb	-0.037069123
114	0xbe5820c1	-0.21106245
115	0xbe2a1563	-0.16609721
116	0xbe3b0134	-0.18262178
117	0xbd9f2ca5	-0.07772187
118	0xbd794647	-0.060858037
119	0xbd1ae193	-0.03781278
120	0x3dcc400a	0.09973152
121	0xbe2e80d4	-0.17041332
122	0x3e427ee5	0.18993719
123	0x3bd1aec4	0.0063990075
124	0x3da276e1	0.079328306
125	0x3e29686c	0.1654374
126	0xbd1caaf6	-0.03824898
127	0x3e433a70	0.19065261

output.weight f4 [5, 128]
0	0xbc4f43a3	-0.012650403
1	0xbd8e641a	-0.069526866
2	0xbd2f0596	-0.042729937
3	0x3ba8d374	0.0051521603
4	0xbc81fa8d	-0.015866542
5	0xbca45529	-0.020060139
6	0x3da6df63	0.081480764
7	0xbc394163	-0.011307093
8	0x3d1f80f7	0.03894135
9	0x3db31228	0.087436974
10	0x3c9db68f	0.01925209
11	0x3dada59c	0.08478853
12	0xbc9510bb	-0.018196454
13	0xbca99e3c	-0.020705335
14	0x3d571182	0.05250693
15	0xbb653f7d	-0.003498047
16	0xbd666db3	-0.05625696
17	0xbbae30a3	-0.0053158565
18	0xbd2353a1	-0.039874677
19	0xbb5c486d	-0.0033612505
20	0x3d8d8b1f	0.06911301
21	0xbd0632ce	-0.032763295
22	0x3d8eb32a	0.069677666
23	0x3c885956	0.016644161
24	0x3d626457	0.055271473
25	0x3c05574b	0.008138488
26	0xbd07fc63	-0.03319968
27	0x3bc02271	0.0058634807
28	0x3d0fb6dc	0.035086498
29	0xbd7ca1f1	-0.061677877
30	0xbbc0c31c	-0.005882634
31	0x3d0658d4	0.032799557
32	0xbcbd226d	-0.023087705
33	0x3d52af3b	0.051436644
34	0x3ca49bdd	0.020093853
35	0xbdb0b356	-0.086279556
36	0x3da9b0ea	0.08285697
37	0x3d9001f1	0.0703162
38	0xbd756835	-0.059913833
39	0x3d4c35d9	0.04985604
40	0x3da1c476	0.078988
41	0xbd9592e1	-0.073034056
42	0xbd3bf494	-0.045887545
43	0x3d9676cf	0.0734688
44	0xbccac4a7	-0.024751974
45	0xbd9ab187	-0.07553392
46	0xbc8d86d3	-0.017276203
47	0x3daf8741	0.085707195
48	0x3c5615fa	0.013066763
49	0x3d42226f	0.04739612
50	0x3a234294	0.00062278775
51	0xbd07ffe4	-0.03320302
52	0xbda1ce2e	-0.07900654
53	0x3d1573ea	0.036487497
54	0x3ca0aeb8	0.019614562
55	0xbb6e8a42	-0.0036398326
56	0x3d8ef485	0.06980232
57	0xbd65e72a	-0.05612866
58	0xbd38ffb4	-0.045165733
59	0x3c91d415	0.017801324
60	0x3d173c9e	0.036923043
61	0x3d87b854	0.06626955
62	0x3c4d817f	0.012543081
63	0x3bc5140a	0.0060143517
64	0xbcccfbad	-0.025022352
65	0x3cb87596	0.022517007
66	0xbd9cad94	-0.07650295
67	0x3c537f49	0.012908765
68	0x3bae4e0e	0.0053193634
69	0xbc8daedc	-0.017295294
70	0x3cd7418b	0.02627637
71	0x3dad9328	0.084753335
72	0x3daa419b	0.083132945
73	0x3d8a9035	0.067657866
74	0xbd0d52c0	-0.034502745
75	0xbb95ae07	-0.004567865
76	0xbb5bc1e2	-0.0033532311
77	0xbc5ff58d	-0.013669384
78	0x3d505ef1	0.050871793
79	0xbdb2e2c8	-0.08734661
80	0xbda528df	-0.08064436
81	0xbcb40a67	-0.021977616
82	0x3d2dc648	0.042425424
83	0xbd4131e5	-0.047166724
84	0x3d0a008e	0.033691935
85	0xbd3f01b4	-0.046632484
86	0x3d43546b	0.04768793
87	0xbda09587	-0.0784102
88	0x3daf93c7	0.08573108
89	0x3d717e0a	0.05895809
90	0x3c275524	0.01021317
91	0xbda0c427	-0.07849913
92	0xbd2ba50c	-0.041905448
93	0x3c30ae91	0.010783807
94	0x3d77a92a	0.06046406
95	0x3d61b695	0.055105764
96	0x3c640dc0	0.013919294
97	0x3d12c211	0.035829607
98	0xbc6d8e63	-0.01449928
99	0xbd3fe015	-0.04684456
100	0xbd8d6884	-0.069047004
101	0x3b114287	0.0022164898
102	0x3ca42e22	0.02004153
103	0x3d37587f	0.04476213
104	0xbc80ae26	-0.01570804
105	0x3da0a5f0	0.0784415
106	0x3d825b7f	0.06365108
107	0xbd614b04	-0.05500318
108	0x3b960030	0.004577659
109	0x3d88f715	0.06687752
110	0x3c250675	0.01007234
111	0x3d1a0e92	0.03761155
112	0xbcd9641b	-0.026536992
113	0x3d6de1db	0.05807672
114	0x3d474677	0.048651185
115	0x3d893eb7	0.06701415
116	0xbc13523a	-0.008991772
117	0x3b439389	0.0029842576
118	0xbd377e8b	-0.044798415
119	0xbd8e5a22	-0.06950785
120	0xbda08783	-0.07838347
121	0x3be65c01	0.0070300107
122	0x3da8e6c3	0.08247139
123	0xbd95ad75	-0.07308475
124	0x3d5aed4c	0.05344896
125	0x3d31e44c	0.04343061
126	0x3c8a9672	0.016917441
127	0x3c42c939	0.0118887955
128	0xbcf7612e	-0.030197706
129	0xbd1a754f	-0.03770953
130	0xbda1b2d2	-0.078954354
131	0x3cdda468	0.027055934
132	0xbd133153	-0.03593571
133	0x3d01d8da	0.031700946
134	0xbce39f37	-0.02778588
135	0x3d774cd2	0.060375996
136	0xbda42584	-0.08014968
137	0xbd5c8edf	-0.05384719
138	0xbda50d48	-0.08059174
139	0x3d8d6f2d	0.06905971
140	0xbd801246	-0.062534854
141	0xbd6695a0	-0.056295037
142	0xbdbb5771	-0.091475375
143	0xbd719a8d	-0.05898528
144	0xbaf06fa3	-0.0018343817
145	0xbd8f4b08	-0.06996733
146	0xbdb35497	-0.087563686
147	0x3c35a929	0.011087694
148	0xbc458b44	-0.012057129
149	0xbda401cc	-0.08008155
150	0x3caa42a6	0.020783734
151	0x3dac8fb7	0.08425849
152	0xbbcbab32	-0.0062154764
153	0x3dabe4e0	0.08393264
154	0xbd68d1ec	-0.056840822
155	0x3ccf28ef	0.025288073
156	0xbca3d22a	-0.019997675
157	0x3d9c9b70	0.07646835
158	0x3d83a18f	0.06427299
159	0x3d84f421	0.064918764
160	0x3d9b0e17	0.07571047
161	0x3d4ba129	0.04971424
162	0xbd20423b	-0.039125662
163	0x3d7189b4	0.058969215
164	0x3ccc2afb	0.024922838
165	0xbd668816	-0.056282125
166	0x3da48f98	0.08035201
167	0x3c217495	0.0098544555
168	0x3d0a17da	0.033714153
169	0xbda62573	-0.081126116
170	0xbc34e41b	-0.011040713
171	0xbda41ddf	-0.0801351
172	0xbc9bed6f	-0.019034116
173	0xb8c1a032	-9.232796e-05
174	0x3db1f85a	0.086899474
175	0xbd142582	-0.036168583
176	0x3cd29c12	0.025709186
177	0x3d23f87b	0.04003189
178	0xbcb1ecdb	-0.021719387
179	0x3d88a9b1	0.06672991
180	0xbda8906c	-0.08230671
181	0xbd510ac3	-0.051035654
182	0xbc46a5ef	-0.012124523
183	0x3d92e71e	0.07172988
184	0xbd217295	-0.039415915
185	0x3d6bbd10	0.05755335
186	0x3da15aa9	0.0787862
187	0xbd2a0a80	-0.04151392
188	0xbb875beb	-0.0041308305
189	0xbbc7db5d	-0.006099148
190	0x3cb75142	0.022377614
191	0x3c81aa82	0.015828375
192	0x3c893ba7	0.016752077
193	0xbcc506c0	-0.02405107
194	0xbd90fb24	-0.07079151
195	0xbd65172f	-0.055930313
196	0xbcc07bbb	-0.0234965
197	0x3d3ce55e	0.04611718
198	0xbda3413e	-0.07971428
199	0xbd978154	-0.07397714
200	0x3c20e027	0.009819067
201	0xbd58a6e8	-0.05289355
202	0x3db72a85	0.08943657
203	0xbda51744	-0.08061078
204	0x3d49a4f5	0.04922958
205	0x3d1e73e0	0.038684726
206	0xbd3a800b	-0.045532268
207	0x3d2c3884	0.042046085
208	0x3da140e7	0.07873707
209	0x3cbc40bf	0.022980092
210	0xbcaa2a9c	-0.02077227
211	0x3d2237e8	0.039604098
212	0x3d91b251	0.07114089
213	0xbd6b9a3a	-0.05752013
214	0x3d9f00c1	0.07763816
215	0x3dac1cf7	0.08403962
216	0xbcb4316d	-0.021996224
217	0xbd186bd8	-0.037212223
218	0x3cc9cf24	0.024634905
219	0xbd98155f	-0.07425951
220	0x3d8ba206	0.06818013
221	0x3a21ea59	0.0006176583
222	0xbd611c99	-0.054958913
223	0xbd308a48	-0.043100625
224	0xbd09c7ea	-0.03363792
225	0x3db92d1a	0.090418056
226	0x3d8c1fb4	0.068419844
227	0xbcc4ae26	-0.024008822
228	0xbd962565	-0.07331351
229	0x3c555149	0.013019868
230	0xbd5743d5	-0.052554924
231	0x3c70abf3	0.014689433
232	0x3d157e9d	0.0364977
233	0xbd21673e	-0.0394051
234	0xbd209266	-0.039202116
235	0x3ccf6e97	0.025321288
236	0xbcfa86b5	-0.030581811
237	0xbd948f66	-0.072539136
238	0x3d49f00c	0.049301192
239	0x3d057aaf	0.032587703
240	0xbd0a75b9	-0.033803675
241	0xbda6e076	-0.08148281
242	0x3d3c64c9	0.045994554
243	0xbd8b117e	-0.06790446
244	0xbb89b578	-0.004202541
245	0xbd7772f1	-0.06041235
246	0x3d57ef25	0.0527183
247	0x3d367f19	0.044554804
248	0xbc69dac2	-0.014273347
249	0x3d82e690	0.063916326
250	0x3a1d1e62	0.0005993602
251	0xbd8e483a	-0.0694737
252	0xbd89ffe8	-0.06738263
253	0x3cd1a36a	0.025590617
254	0x3da64d51	0.08120216
255	0x3c73970b	0.014867554

output.bias f4 [5]
0	0x3d896949	0.06709535
1	0x3b352a93	0.0027643784
2	0xbd825f28	-0.06365806
3	0x3d92746d	0.07151113
4	0x3d9532d7	0.072850876
